{
  "layers" : [
    {
      "name" : "swa_model\/Reshape",
      "weights" : {

      },
      "dst_w" : 22,
      "version" : 1,
      "dst_n" : -1,
      "dst_nd_rank" : 4,
      "type" : "reshape",
      "dst_h" : 19,
      "mode" : 0,
      "attributes" : {
        "basic_block_head" : 1
      },
      "dynamic_shape" : false,
      "bottom" : "swa_model_bin_inputs",
      "debug_info" : "swa_model\/Reshape",
      "dst_k" : 19,
      "dst_seq" : 1,
      "top" : "swa_model\/Reshape"
    },
    {
      "begin_n" : 0,
      "static_sizes_k" : 0,
      "end_mask_h" : true,
      "end_w" : 1,
      "end_h" : 1,
      "begin_h" : 0,
      "stride_n" : 1,
      "end_seq" : 1,
      "begin_mask_seq" : false,
      "begin_mask_h" : true,
      "squeeze_mask_h" : false,
      "stride_k" : 1,
      "type" : "general_slice",
      "begin_mask_k" : true,
      "static_sizes_w" : 0,
      "begin_w" : 0,
      "end_mask_k" : true,
      "use_static_sizes" : false,
      "stride_h" : -1,
      "static_sizes_n" : 0,
      "begin_mask_n" : true,
      "weights" : {

      },
      "name" : "swa_model\/cond\/ReverseV2",
      "stride_seq" : 1,
      "end_k" : 1,
      "static_sizes_seq" : 0,
      "top" : "swa_model\/cond\/ReverseV2",
      "begin_seq" : 0,
      "squeeze_mask_k" : false,
      "begin_k" : 0,
      "end_mask_w" : true,
      "end_mask_seq" : false,
      "end_mask_n" : true,
      "debug_info" : "swa_model\/cond\/ReverseV2",
      "stride_w" : 1,
      "squeeze_mask_seq" : false,
      "static_sizes_h" : 0,
      "begin_mask_w" : true,
      "bottom" : "swa_model\/Reshape",
      "end_n" : 1,
      "squeeze_mask_w" : false,
      "squeeze_mask_n" : false
    },
    {
      "top" : "swa_model\/cond\/pred_id\/_20__cf__20",
      "w" : 1,
      "h" : 1,
      "weights" : {

      },
      "nd_rank" : 1,
      "type" : "load_constant",
      "k" : 1,
      "attributes" : {
        "constant_if_condition" : 30
      },
      "bottom" : "",
      "debug_info" : "swa_model\/cond\/pred_id\/_20__cf__20",
      "n" : 1,
      "name" : "swa_model\/cond\/pred_id\/_20__cf__20",
      "constant_blob" : 1
    },
    {
      "bottom" : "swa_model\/cond\/pred_id\/_20__cf__20",
      "weights" : {

      },
      "debug_info" : "swa_model\/cond\/Merge",
      "top" : "",
      "type" : "cf_if",
      "name" : "swa_model\/cond\/Merge_if",
      "attributes" : {
        "constant_if_condition" : 30
      }
    },
    {
      "bottom" : "swa_model\/cond\/ReverseV2",
      "weights" : {

      },
      "debug_info" : "identity_0",
      "top" : "identity_0",
      "type" : "copy",
      "name" : "identity_0",
      "attributes" : {
        "basic_block_head" : 1
      }
    },
    {
      "weights" : {

      },
      "debug_info" : "identity_0_ret_copy",
      "top" : "swa_model\/cond\/Merge",
      "type" : "copy",
      "name" : "identity_0_ret_copy",
      "bottom" : "identity_0"
    },
    {
      "weights" : {

      },
      "debug_info" : "",
      "top" : "",
      "type" : "cf_else",
      "name" : "swa_model\/cond\/Merge_else",
      "bottom" : ""
    },
    {
      "bottom" : "swa_model\/Reshape",
      "weights" : {

      },
      "debug_info" : "identity_1",
      "top" : "identity_1",
      "type" : "copy",
      "name" : "identity_1",
      "attributes" : {
        "basic_block_head" : 1
      }
    },
    {
      "weights" : {

      },
      "debug_info" : "identity_1_ret_copy",
      "top" : "swa_model\/cond\/Merge_@ssa_version_1",
      "type" : "copy",
      "name" : "identity_1_ret_copy",
      "bottom" : "identity_1"
    },
    {
      "bottom" : "",
      "weights" : {

      },
      "debug_info" : "",
      "top" : "",
      "type" : "cf_end",
      "name" : "swa_model\/cond\/Merge_end",
      "attributes" : {
        "basic_block_head" : 1
      }
    },
    {
      "bottom" : "swa_model\/cond\/Merge,swa_model\/cond\/Merge_@ssa_version_1",
      "weights" : {

      },
      "debug_info" : "",
      "top" : "swa_model\/cond\/Merge_@ssa_version_2",
      "type" : "phi_virtual",
      "name" : "phi_swa_model\/cond\/Merge_@ssa_version_2",
      "attributes" : {
        "basic_block_head" : 1
      }
    },
    {
      "nB" : 19,
      "top" : "swa_model\/Tensordot\/MatMul",
      "has_biases" : 0,
      "weights" : {

      },
      "nC" : 256,
      "blob_weights" : 3,
      "type" : "inner_product",
      "has_relu" : 0,
      "bottom" : "swa_model_global_inputs",
      "debug_info" : "swa_model\/Tensordot\/MatMul",
      "has_tanh" : 0,
      "nd_mode" : true,
      "name" : "swa_model\/Tensordot\/MatMul",
      "has_prelu" : 0
    },
    {
      "begin_n" : 0,
      "static_sizes_k" : 0,
      "end_mask_h" : true,
      "end_w" : 1,
      "end_h" : 1,
      "begin_h" : 0,
      "stride_n" : 1,
      "end_seq" : 1,
      "begin_mask_seq" : false,
      "begin_mask_h" : true,
      "squeeze_mask_h" : false,
      "stride_k" : -1,
      "type" : "general_slice",
      "begin_mask_k" : true,
      "static_sizes_w" : 0,
      "begin_w" : 0,
      "end_mask_k" : true,
      "use_static_sizes" : false,
      "stride_h" : 1,
      "static_sizes_n" : 0,
      "begin_mask_n" : true,
      "weights" : {

      },
      "name" : "swa_model\/cond_1\/ReverseV2",
      "stride_seq" : 1,
      "end_k" : 1,
      "static_sizes_seq" : 0,
      "top" : "swa_model\/cond_1\/ReverseV2",
      "begin_seq" : 0,
      "squeeze_mask_k" : false,
      "begin_k" : 0,
      "end_mask_w" : true,
      "end_mask_seq" : false,
      "end_mask_n" : true,
      "debug_info" : "swa_model\/cond_1\/ReverseV2",
      "stride_w" : 1,
      "squeeze_mask_seq" : false,
      "static_sizes_h" : 0,
      "begin_mask_w" : true,
      "bottom" : "swa_model\/cond\/Merge_@ssa_version_2",
      "end_n" : 1,
      "squeeze_mask_w" : false,
      "squeeze_mask_n" : false
    },
    {
      "top" : "swa_model\/cond_1\/pred_id\/_21__cf__21",
      "w" : 1,
      "h" : 1,
      "weights" : {

      },
      "nd_rank" : 1,
      "type" : "load_constant",
      "k" : 1,
      "attributes" : {
        "constant_if_condition" : 30
      },
      "bottom" : "",
      "debug_info" : "swa_model\/cond_1\/pred_id\/_21__cf__21",
      "n" : 1,
      "name" : "swa_model\/cond_1\/pred_id\/_21__cf__21",
      "constant_blob" : 5
    },
    {
      "bottom" : "swa_model\/cond_1\/pred_id\/_21__cf__21",
      "weights" : {

      },
      "debug_info" : "swa_model\/cond_1\/Merge",
      "top" : "",
      "type" : "cf_if",
      "name" : "swa_model\/cond_1\/Merge_if",
      "attributes" : {
        "constant_if_condition" : 30
      }
    },
    {
      "bottom" : "swa_model\/cond_1\/ReverseV2",
      "weights" : {

      },
      "debug_info" : "identity_2",
      "top" : "identity_2",
      "type" : "copy",
      "name" : "identity_2",
      "attributes" : {
        "basic_block_head" : 1
      }
    },
    {
      "weights" : {

      },
      "debug_info" : "identity_2_ret_copy",
      "top" : "swa_model\/cond_1\/Merge",
      "type" : "copy",
      "name" : "identity_2_ret_copy",
      "bottom" : "identity_2"
    },
    {
      "weights" : {

      },
      "debug_info" : "",
      "top" : "",
      "type" : "cf_else",
      "name" : "swa_model\/cond_1\/Merge_else",
      "bottom" : ""
    },
    {
      "bottom" : "swa_model\/cond\/Merge,swa_model\/cond\/Merge_@ssa_version_2,swa_model\/cond\/Merge_@ssa_version_1",
      "weights" : {

      },
      "debug_info" : "",
      "top" : "swa_model\/cond\/Merge_@ssa_version_3",
      "type" : "phi_virtual",
      "name" : "phi_swa_model\/cond\/Merge_@ssa_version_3",
      "attributes" : {
        "basic_block_head" : 1
      }
    },
    {
      "weights" : {

      },
      "debug_info" : "identity_3",
      "top" : "identity_3",
      "type" : "copy",
      "name" : "identity_3",
      "bottom" : "swa_model\/cond\/Merge_@ssa_version_3"
    },
    {
      "weights" : {

      },
      "debug_info" : "identity_3_ret_copy",
      "top" : "swa_model\/cond_1\/Merge_@ssa_version_1",
      "type" : "copy",
      "name" : "identity_3_ret_copy",
      "bottom" : "identity_3"
    },
    {
      "bottom" : "",
      "weights" : {

      },
      "debug_info" : "",
      "top" : "",
      "type" : "cf_end",
      "name" : "swa_model\/cond_1\/Merge_end",
      "attributes" : {
        "basic_block_head" : 1
      }
    },
    {
      "bottom" : "swa_model\/cond_1\/Merge,swa_model\/cond_1\/Merge_@ssa_version_1",
      "weights" : {

      },
      "debug_info" : "",
      "top" : "swa_model\/cond_1\/Merge_@ssa_version_2",
      "type" : "phi_virtual",
      "name" : "phi_swa_model\/cond_1\/Merge_@ssa_version_2",
      "attributes" : {
        "basic_block_head" : 1
      }
    },
    {
      "name" : "swa_model\/Reshape_1",
      "weights" : {

      },
      "dst_w" : 256,
      "version" : 1,
      "dst_n" : -1,
      "dst_nd_rank" : 4,
      "type" : "reshape",
      "dst_h" : 1,
      "mode" : 0,
      "dynamic_shape" : false,
      "bottom" : "swa_model\/Tensordot\/MatMul",
      "debug_info" : "swa_model\/Reshape_1",
      "dst_seq" : 1,
      "dst_k" : 1,
      "top" : "swa_model\/Reshape_1"
    },
    {
      "axis_h" : 2,
      "axis_w" : 0,
      "bottom" : "swa_model\/cond_1\/Merge_@ssa_version_2",
      "axis_k" : 1,
      "axis_n" : 3,
      "axis_seq" : 4,
      "weights" : {

      },
      "debug_info" : "transpose_378",
      "top" : "transpose_378",
      "type" : "transpose",
      "name" : "transpose_378"
    },
    {
      "top" : "swa_model\/cond_2\/pred_id\/_22__cf__22",
      "w" : 1,
      "h" : 1,
      "weights" : {

      },
      "nd_rank" : 1,
      "type" : "load_constant",
      "k" : 1,
      "attributes" : {
        "constant_if_condition" : 30
      },
      "bottom" : "",
      "debug_info" : "swa_model\/cond_2\/pred_id\/_22__cf__22",
      "n" : 1,
      "name" : "swa_model\/cond_2\/pred_id\/_22__cf__22",
      "constant_blob" : 7
    },
    {
      "bottom" : "swa_model\/cond_2\/pred_id\/_22__cf__22",
      "weights" : {

      },
      "debug_info" : "swa_model\/cond_2\/Merge",
      "top" : "",
      "type" : "cf_if",
      "name" : "swa_model\/cond_2\/Merge_if",
      "attributes" : {
        "constant_if_condition" : 30
      }
    },
    {
      "bottom" : "transpose_378",
      "weights" : {

      },
      "debug_info" : "identity_4",
      "top" : "identity_4",
      "type" : "copy",
      "name" : "identity_4",
      "attributes" : {
        "basic_block_head" : 1
      }
    },
    {
      "weights" : {

      },
      "debug_info" : "identity_4_ret_copy",
      "top" : "swa_model\/cond_2\/Merge",
      "type" : "copy",
      "name" : "identity_4_ret_copy",
      "bottom" : "identity_4"
    },
    {
      "weights" : {

      },
      "debug_info" : "",
      "top" : "",
      "type" : "cf_else",
      "name" : "swa_model\/cond_2\/Merge_else",
      "bottom" : ""
    },
    {
      "bottom" : "swa_model\/cond_1\/Merge,swa_model\/cond_1\/Merge_@ssa_version_2,swa_model\/cond_1\/Merge_@ssa_version_1",
      "weights" : {

      },
      "debug_info" : "",
      "top" : "swa_model\/cond_1\/Merge_@ssa_version_3",
      "type" : "phi_virtual",
      "name" : "phi_swa_model\/cond_1\/Merge_@ssa_version_3",
      "attributes" : {
        "basic_block_head" : 1
      }
    },
    {
      "weights" : {

      },
      "debug_info" : "identity_5",
      "top" : "identity_5",
      "type" : "copy",
      "name" : "identity_5",
      "bottom" : "swa_model\/cond_1\/Merge_@ssa_version_3"
    },
    {
      "weights" : {

      },
      "debug_info" : "identity_5_ret_copy",
      "top" : "swa_model\/cond_2\/Merge_@ssa_version_1",
      "type" : "copy",
      "name" : "identity_5_ret_copy",
      "bottom" : "identity_5"
    },
    {
      "bottom" : "",
      "weights" : {

      },
      "debug_info" : "",
      "top" : "",
      "type" : "cf_end",
      "name" : "swa_model\/cond_2\/Merge_end",
      "attributes" : {
        "basic_block_head" : 1
      }
    },
    {
      "bottom" : "swa_model\/cond_2\/Merge,swa_model\/cond_2\/Merge_@ssa_version_1",
      "weights" : {

      },
      "debug_info" : "",
      "top" : "swa_model\/cond_2\/Merge_@ssa_version_2",
      "type" : "phi_virtual",
      "name" : "phi_swa_model\/cond_2\/Merge_@ssa_version_2",
      "attributes" : {
        "basic_block_head" : 1
      }
    },
    {
      "bottom" : "swa_model\/cond_2\/Merge_@ssa_version_2",
      "end" : 1,
      "start" : 0,
      "weights" : {

      },
      "axis" : 0,
      "debug_info" : "swa_model\/strided_slice_1",
      "top" : "swa_model\/strided_slice_1",
      "type" : "slice",
      "name" : "swa_model\/strided_slice_1"
    },
    {
      "axis_h" : 2,
      "axis_w" : 1,
      "bottom" : "swa_model\/cond_2\/Merge_@ssa_version_2",
      "axis_k" : 0,
      "axis_n" : 3,
      "axis_seq" : 4,
      "weights" : {

      },
      "debug_info" : "transpose_377",
      "top" : "transpose_377",
      "type" : "transpose",
      "name" : "transpose_377"
    },
    {
      "pad_r" : 0,
      "fused_relu" : 0,
      "fused_tanh" : 0,
      "debug_info" : "swa_model\/Conv2Dx",
      "pad_fill_mode" : 0,
      "pad_b" : 0,
      "pad_l" : 0,
      "top" : "swa_model\/Conv2Dx",
      "blob_weights" : 9,
      "K" : 22,
      "name" : "swa_model\/Conv2Dx",
      "has_batch_norm" : 0,
      "type" : "convolution",
      "n_groups" : 1,
      "pad_t" : 0,
      "has_biases" : 0,
      "C" : 256,
      "bottom" : "transpose_377",
      "weights" : {

      },
      "Nx" : 5,
      "pad_mode" : 1,
      "pad_value" : 0,
      "Ny" : 5,
      "n_parallel" : 1
    },
    {
      "axis_mode" : 4,
      "bottom" : "swa_model\/strided_slice_1",
      "weights" : {

      },
      "mode" : 0,
      "nd_axis" : 1,
      "nd_mode" : true,
      "debug_info" : "swa_model\/Sum_1",
      "use_version" : 1,
      "top" : "swa_model\/strided_slice_1__reduction_axis__1",
      "type" : "reduce",
      "name" : "swa_model\/Sum_1__reduction_axis__0"
    },
    {
      "axis_mode" : 2,
      "bottom" : "swa_model\/strided_slice_1__reduction_axis__1",
      "weights" : {

      },
      "mode" : 0,
      "nd_axis" : 2,
      "nd_mode" : true,
      "debug_info" : "swa_model\/Sum_1",
      "use_version" : 1,
      "top" : "swa_model\/strided_slice_1__reduction_axis__2",
      "type" : "reduce",
      "name" : "swa_model\/Sum_1__reduction_axis__1"
    },
    {
      "axis_mode" : 1,
      "bottom" : "swa_model\/strided_slice_1__reduction_axis__2",
      "weights" : {

      },
      "mode" : 0,
      "nd_axis" : 3,
      "nd_mode" : true,
      "debug_info" : "swa_model\/Sum_1",
      "use_version" : 1,
      "top" : "swa_model\/Sum_1_presqueeze",
      "type" : "reduce",
      "name" : "swa_model\/Sum_1_presqueeze"
    },
    {
      "name" : "swa_model\/Sum_1",
      "version" : 1,
      "axes_2" : 3,
      "axes_1" : 2,
      "type" : "squeeze",
      "axes_0" : 1,
      "nd_axis" : 0,
      "bottom" : "swa_model\/Sum_1_presqueeze",
      "debug_info" : "swa_model\/Sum_1",
      "size_of_axes" : 3,
      "weights" : {

      },
      "top" : "swa_model\/Sum_1"
    },
    {
      "top" : "swa_model\/sub_8\/x",
      "w" : 1,
      "h" : 1,
      "name" : "swa_model\/sub_8\/x",
      "nd_rank" : 1,
      "type" : "load_constant",
      "k" : 1,
      "bottom" : "",
      "debug_info" : "swa_model\/sub_8\/x",
      "n" : 1,
      "weights" : {

      },
      "constant_blob" : 11
    },
    {
      "alpha" : -1,
      "bottom" : "swa_model\/strided_slice_1",
      "weights" : {

      },
      "mode" : 6,
      "debug_info" : "_neg_y_swa_model\/sub_8",
      "top" : "_neg_y_swa_model\/sub_8",
      "type" : "activation",
      "name" : "_neg_y_swa_model\/sub_8",
      "beta" : 0
    },
    {
      "bottom" : "_neg_y_swa_model\/sub_8,swa_model\/sub_8\/x",
      "alpha" : 1,
      "operation" : 0,
      "weights" : {

      },
      "fused_relu" : 0,
      "debug_info" : "swa_model\/sub_8",
      "top" : "swa_model\/sub_8",
      "type" : "elementwise",
      "name" : "swa_model\/sub_8",
      "beta" : 0
    },
    {
      "axis_h" : 0,
      "axis_w" : 2,
      "bottom" : "swa_model\/Conv2Dx",
      "axis_k" : 1,
      "axis_n" : 3,
      "axis_seq" : 4,
      "weights" : {

      },
      "debug_info" : "transpose_376",
      "top" : "transpose_376",
      "type" : "transpose",
      "name" : "transpose_376"
    },
    {
      "bottom" : "transpose_376,swa_model\/Reshape_1",
      "alpha" : 1,
      "operation" : 0,
      "weights" : {

      },
      "fused_relu" : 0,
      "debug_info" : "swa_model\/add",
      "nd_mode" : true,
      "top" : "swa_model\/add",
      "type" : "elementwise",
      "name" : "swa_model\/add",
      "beta" : 0
    },
    {
      "bottom" : "swa_model\/Sum_1",
      "alpha" : 1,
      "operation" : 11,
      "weights" : {

      },
      "fused_relu" : 0,
      "debug_info" : "swa_model\/Sqrt",
      "top" : "swa_model\/Sqrt",
      "type" : "elementwise",
      "name" : "swa_model\/Sqrt",
      "beta" : 0
    },
    {
      "bottom" : "swa_model\/sub_8",
      "alpha" : 5000,
      "operation" : 1,
      "weights" : {

      },
      "fused_relu" : 0,
      "debug_info" : "swa_model\/mul_155",
      "top" : "swa_model\/mul_155",
      "type" : "elementwise",
      "name" : "swa_model\/mul_155",
      "beta" : 0
    },
    {
      "top" : "swa_model\/rconv1\/norm1\/beta\/read\/_37__cf__37",
      "w" : 256,
      "h" : 1,
      "name" : "swa_model\/rconv1\/norm1\/beta\/read\/_37__cf__37",
      "nd_rank" : 1,
      "type" : "load_constant",
      "k" : 1,
      "bottom" : "",
      "debug_info" : "swa_model\/rconv1\/norm1\/beta\/read\/_37__cf__37",
      "n" : 1,
      "weights" : {

      },
      "constant_blob" : 13
    },
    {
      "bottom" : "swa_model\/add,swa_model\/rconv1\/norm1\/beta\/read\/_37__cf__37",
      "alpha" : 1,
      "operation" : 0,
      "weights" : {

      },
      "fused_relu" : 0,
      "debug_info" : "swa_model\/add_1",
      "nd_mode" : true,
      "top" : "swa_model\/add_1",
      "type" : "elementwise",
      "name" : "swa_model\/add_1",
      "beta" : 0
    },
    {
      "name" : "swa_model\/Reshape_3",
      "weights" : {

      },
      "dst_w" : 1,
      "version" : 1,
      "dst_n" : -1,
      "dst_nd_rank" : 4,
      "type" : "reshape",
      "dst_h" : 1,
      "mode" : 0,
      "dynamic_shape" : false,
      "bottom" : "swa_model\/Sqrt",
      "debug_info" : "swa_model\/Reshape_3",
      "dst_seq" : 1,
      "dst_k" : 1,
      "top" : "swa_model\/Reshape_3"
    },
    {
      "name" : "swa_model\/Reshape_5",
      "weights" : {

      },
      "dst_w" : 1,
      "version" : 1,
      "dst_n" : -1,
      "dst_nd_rank" : 4,
      "type" : "reshape",
      "dst_h" : 1,
      "mode" : 0,
      "dynamic_shape" : false,
      "bottom" : "swa_model\/Sqrt",
      "debug_info" : "swa_model\/Reshape_5",
      "dst_seq" : 1,
      "dst_k" : 1,
      "top" : "swa_model\/Reshape_5"
    },
    {
      "name" : "swa_model\/Reshape_7",
      "weights" : {

      },
      "dst_w" : 1,
      "version" : 1,
      "dst_n" : -1,
      "dst_nd_rank" : 4,
      "type" : "reshape",
      "dst_h" : 1,
      "mode" : 0,
      "dynamic_shape" : false,
      "bottom" : "swa_model\/Sqrt",
      "debug_info" : "swa_model\/Reshape_7",
      "dst_seq" : 1,
      "dst_k" : 1,
      "top" : "swa_model\/Reshape_7"
    },
    {
      "name" : "swa_model\/Reshape_9",
      "weights" : {

      },
      "dst_w" : 1,
      "version" : 1,
      "dst_n" : -1,
      "dst_nd_rank" : 4,
      "type" : "reshape",
      "dst_h" : 1,
      "mode" : 0,
      "dynamic_shape" : false,
      "bottom" : "swa_model\/Sqrt",
      "debug_info" : "swa_model\/Reshape_9",
      "dst_seq" : 1,
      "dst_k" : 1,
      "top" : "swa_model\/Reshape_9"
    },
    {
      "name" : "swa_model\/Reshape_11",
      "weights" : {

      },
      "dst_w" : 1,
      "version" : 1,
      "dst_n" : -1,
      "dst_nd_rank" : 4,
      "type" : "reshape",
      "dst_h" : 1,
      "mode" : 0,
      "dynamic_shape" : false,
      "bottom" : "swa_model\/Sqrt",
      "debug_info" : "swa_model\/Reshape_11",
      "dst_seq" : 1,
      "dst_k" : 1,
      "top" : "swa_model\/Reshape_11"
    },
    {
      "name" : "swa_model\/Reshape_13",
      "weights" : {

      },
      "dst_w" : 1,
      "version" : 1,
      "dst_n" : -1,
      "dst_nd_rank" : 4,
      "type" : "reshape",
      "dst_h" : 1,
      "mode" : 0,
      "dynamic_shape" : false,
      "bottom" : "swa_model\/Sqrt",
      "debug_info" : "swa_model\/Reshape_13",
      "dst_seq" : 1,
      "dst_k" : 1,
      "top" : "swa_model\/Reshape_13"
    },
    {
      "name" : "swa_model\/Reshape_15",
      "weights" : {

      },
      "dst_w" : 1,
      "version" : 1,
      "dst_n" : -1,
      "dst_nd_rank" : 4,
      "type" : "reshape",
      "dst_h" : 1,
      "mode" : 0,
      "dynamic_shape" : false,
      "bottom" : "swa_model\/Sqrt",
      "debug_info" : "swa_model\/Reshape_15",
      "dst_seq" : 1,
      "dst_k" : 1,
      "top" : "swa_model\/Reshape_15"
    },
    {
      "name" : "swa_model\/Reshape_17",
      "weights" : {

      },
      "dst_w" : 1,
      "version" : 1,
      "dst_n" : -1,
      "dst_nd_rank" : 4,
      "type" : "reshape",
      "dst_h" : 1,
      "mode" : 0,
      "dynamic_shape" : false,
      "bottom" : "swa_model\/Sqrt",
      "debug_info" : "swa_model\/Reshape_17",
      "dst_seq" : 1,
      "dst_k" : 1,
      "top" : "swa_model\/Reshape_17"
    },
    {
      "name" : "swa_model\/Reshape_21",
      "weights" : {

      },
      "dst_w" : 1,
      "version" : 1,
      "dst_n" : 1,
      "dst_nd_rank" : 2,
      "type" : "reshape",
      "dst_h" : -1,
      "mode" : 0,
      "dynamic_shape" : false,
      "bottom" : "swa_model\/Sqrt",
      "debug_info" : "swa_model\/Reshape_21",
      "dst_seq" : 1,
      "dst_k" : 1,
      "top" : "swa_model\/Reshape_21"
    },
    {
      "bottom" : "swa_model\/add_1",
      "weights" : {

      },
      "mode" : 0,
      "debug_info" : "swa_model\/Relu",
      "top" : "swa_model\/Relu",
      "type" : "activation",
      "name" : "swa_model\/Relu"
    },
    {
      "top" : "swa_model\/sub\/y",
      "w" : 1,
      "h" : 1,
      "name" : "swa_model\/sub\/y",
      "nd_rank" : 1,
      "type" : "load_constant",
      "k" : 1,
      "bottom" : "",
      "debug_info" : "swa_model\/sub\/y",
      "n" : 1,
      "weights" : {

      },
      "constant_blob" : 15
    },
    {
      "alpha" : -1,
      "bottom" : "swa_model\/sub\/y",
      "weights" : {

      },
      "mode" : 6,
      "debug_info" : "_neg_y_swa_model\/sub",
      "top" : "_neg_y_swa_model\/sub",
      "type" : "activation",
      "name" : "_neg_y_swa_model\/sub",
      "beta" : 0
    },
    {
      "bottom" : "swa_model\/Reshape_3,_neg_y_swa_model\/sub",
      "alpha" : 1,
      "operation" : 0,
      "weights" : {

      },
      "fused_relu" : 0,
      "debug_info" : "swa_model\/sub",
      "top" : "swa_model\/sub",
      "type" : "elementwise",
      "name" : "swa_model\/sub",
      "beta" : 0
    },
    {
      "top" : "swa_model\/sub_1\/y",
      "w" : 1,
      "h" : 1,
      "name" : "swa_model\/sub_1\/y",
      "nd_rank" : 1,
      "type" : "load_constant",
      "k" : 1,
      "bottom" : "",
      "debug_info" : "swa_model\/sub_1\/y",
      "n" : 1,
      "weights" : {

      },
      "constant_blob" : 17
    },
    {
      "alpha" : -1,
      "bottom" : "swa_model\/sub_1\/y",
      "weights" : {

      },
      "mode" : 6,
      "debug_info" : "_neg_y_swa_model\/sub_1",
      "top" : "_neg_y_swa_model\/sub_1",
      "type" : "activation",
      "name" : "_neg_y_swa_model\/sub_1",
      "beta" : 0
    },
    {
      "bottom" : "swa_model\/Reshape_5,_neg_y_swa_model\/sub_1",
      "alpha" : 1,
      "operation" : 0,
      "weights" : {

      },
      "fused_relu" : 0,
      "debug_info" : "swa_model\/sub_1",
      "top" : "swa_model\/sub_1",
      "type" : "elementwise",
      "name" : "swa_model\/sub_1",
      "beta" : 0
    },
    {
      "top" : "swa_model\/sub_2\/y",
      "w" : 1,
      "h" : 1,
      "name" : "swa_model\/sub_2\/y",
      "nd_rank" : 1,
      "type" : "load_constant",
      "k" : 1,
      "bottom" : "",
      "debug_info" : "swa_model\/sub_2\/y",
      "n" : 1,
      "weights" : {

      },
      "constant_blob" : 19
    },
    {
      "alpha" : -1,
      "bottom" : "swa_model\/sub_2\/y",
      "weights" : {

      },
      "mode" : 6,
      "debug_info" : "_neg_y_swa_model\/sub_2",
      "top" : "_neg_y_swa_model\/sub_2",
      "type" : "activation",
      "name" : "_neg_y_swa_model\/sub_2",
      "beta" : 0
    },
    {
      "bottom" : "swa_model\/Reshape_7,_neg_y_swa_model\/sub_2",
      "alpha" : 1,
      "operation" : 0,
      "weights" : {

      },
      "fused_relu" : 0,
      "debug_info" : "swa_model\/sub_2",
      "top" : "swa_model\/sub_2",
      "type" : "elementwise",
      "name" : "swa_model\/sub_2",
      "beta" : 0
    },
    {
      "top" : "swa_model\/sub_3\/y",
      "w" : 1,
      "h" : 1,
      "name" : "swa_model\/sub_3\/y",
      "nd_rank" : 1,
      "type" : "load_constant",
      "k" : 1,
      "bottom" : "",
      "debug_info" : "swa_model\/sub_3\/y",
      "n" : 1,
      "weights" : {

      },
      "constant_blob" : 21
    },
    {
      "alpha" : -1,
      "bottom" : "swa_model\/sub_3\/y",
      "weights" : {

      },
      "mode" : 6,
      "debug_info" : "_neg_y_swa_model\/sub_3",
      "top" : "_neg_y_swa_model\/sub_3",
      "type" : "activation",
      "name" : "_neg_y_swa_model\/sub_3",
      "beta" : 0
    },
    {
      "bottom" : "swa_model\/Reshape_9,_neg_y_swa_model\/sub_3",
      "alpha" : 1,
      "operation" : 0,
      "weights" : {

      },
      "fused_relu" : 0,
      "debug_info" : "swa_model\/sub_3",
      "top" : "swa_model\/sub_3",
      "type" : "elementwise",
      "name" : "swa_model\/sub_3",
      "beta" : 0
    },
    {
      "top" : "swa_model\/sub_4\/y",
      "w" : 1,
      "h" : 1,
      "name" : "swa_model\/sub_4\/y",
      "nd_rank" : 1,
      "type" : "load_constant",
      "k" : 1,
      "bottom" : "",
      "debug_info" : "swa_model\/sub_4\/y",
      "n" : 1,
      "weights" : {

      },
      "constant_blob" : 23
    },
    {
      "alpha" : -1,
      "bottom" : "swa_model\/sub_4\/y",
      "weights" : {

      },
      "mode" : 6,
      "debug_info" : "_neg_y_swa_model\/sub_4",
      "top" : "_neg_y_swa_model\/sub_4",
      "type" : "activation",
      "name" : "_neg_y_swa_model\/sub_4",
      "beta" : 0
    },
    {
      "bottom" : "swa_model\/Reshape_11,_neg_y_swa_model\/sub_4",
      "alpha" : 1,
      "operation" : 0,
      "weights" : {

      },
      "fused_relu" : 0,
      "debug_info" : "swa_model\/sub_4",
      "top" : "swa_model\/sub_4",
      "type" : "elementwise",
      "name" : "swa_model\/sub_4",
      "beta" : 0
    },
    {
      "top" : "swa_model\/sub_5\/y",
      "w" : 1,
      "h" : 1,
      "name" : "swa_model\/sub_5\/y",
      "nd_rank" : 1,
      "type" : "load_constant",
      "k" : 1,
      "bottom" : "",
      "debug_info" : "swa_model\/sub_5\/y",
      "n" : 1,
      "weights" : {

      },
      "constant_blob" : 25
    },
    {
      "alpha" : -1,
      "bottom" : "swa_model\/sub_5\/y",
      "weights" : {

      },
      "mode" : 6,
      "debug_info" : "_neg_y_swa_model\/sub_5",
      "top" : "_neg_y_swa_model\/sub_5",
      "type" : "activation",
      "name" : "_neg_y_swa_model\/sub_5",
      "beta" : 0
    },
    {
      "bottom" : "swa_model\/Reshape_13,_neg_y_swa_model\/sub_5",
      "alpha" : 1,
      "operation" : 0,
      "weights" : {

      },
      "fused_relu" : 0,
      "debug_info" : "swa_model\/sub_5",
      "top" : "swa_model\/sub_5",
      "type" : "elementwise",
      "name" : "swa_model\/sub_5",
      "beta" : 0
    },
    {
      "top" : "swa_model\/sub_6\/y",
      "w" : 1,
      "h" : 1,
      "name" : "swa_model\/sub_6\/y",
      "nd_rank" : 1,
      "type" : "load_constant",
      "k" : 1,
      "bottom" : "",
      "debug_info" : "swa_model\/sub_6\/y",
      "n" : 1,
      "weights" : {

      },
      "constant_blob" : 27
    },
    {
      "alpha" : -1,
      "bottom" : "swa_model\/sub_6\/y",
      "weights" : {

      },
      "mode" : 6,
      "debug_info" : "_neg_y_swa_model\/sub_6",
      "top" : "_neg_y_swa_model\/sub_6",
      "type" : "activation",
      "name" : "_neg_y_swa_model\/sub_6",
      "beta" : 0
    },
    {
      "bottom" : "swa_model\/Reshape_15,_neg_y_swa_model\/sub_6",
      "alpha" : 1,
      "operation" : 0,
      "weights" : {

      },
      "fused_relu" : 0,
      "debug_info" : "swa_model\/sub_6",
      "top" : "swa_model\/sub_6",
      "type" : "elementwise",
      "name" : "swa_model\/sub_6",
      "beta" : 0
    },
    {
      "top" : "swa_model\/sub_7\/y",
      "w" : 1,
      "h" : 1,
      "name" : "swa_model\/sub_7\/y",
      "nd_rank" : 1,
      "type" : "load_constant",
      "k" : 1,
      "bottom" : "",
      "debug_info" : "swa_model\/sub_7\/y",
      "n" : 1,
      "weights" : {

      },
      "constant_blob" : 29
    },
    {
      "alpha" : -1,
      "bottom" : "swa_model\/sub_7\/y",
      "weights" : {

      },
      "mode" : 6,
      "debug_info" : "_neg_y_swa_model\/sub_7",
      "top" : "_neg_y_swa_model\/sub_7",
      "type" : "activation",
      "name" : "_neg_y_swa_model\/sub_7",
      "beta" : 0
    },
    {
      "bottom" : "swa_model\/Reshape_17,_neg_y_swa_model\/sub_7",
      "alpha" : 1,
      "operation" : 0,
      "weights" : {

      },
      "fused_relu" : 0,
      "debug_info" : "swa_model\/sub_7",
      "top" : "swa_model\/sub_7",
      "type" : "elementwise",
      "name" : "swa_model\/sub_7",
      "beta" : 0
    },
    {
      "top" : "swa_model\/sub_10\/y",
      "w" : 1,
      "h" : 1,
      "name" : "swa_model\/sub_10\/y",
      "nd_rank" : 1,
      "type" : "load_constant",
      "k" : 1,
      "bottom" : "",
      "debug_info" : "swa_model\/sub_10\/y",
      "n" : 1,
      "weights" : {

      },
      "constant_blob" : 31
    },
    {
      "alpha" : -1,
      "bottom" : "swa_model\/sub_10\/y",
      "weights" : {

      },
      "mode" : 6,
      "debug_info" : "_neg_y_swa_model\/sub_10",
      "top" : "_neg_y_swa_model\/sub_10",
      "type" : "activation",
      "name" : "_neg_y_swa_model\/sub_10",
      "beta" : 0
    },
    {
      "bottom" : "swa_model\/Reshape_21,_neg_y_swa_model\/sub_10",
      "alpha" : 1,
      "operation" : 0,
      "weights" : {

      },
      "fused_relu" : 0,
      "debug_info" : "swa_model\/sub_10",
      "top" : "swa_model\/sub_10",
      "type" : "elementwise",
      "name" : "swa_model\/sub_10",
      "beta" : 0
    },
    {
      "top" : "swa_model\/sub_11\/y",
      "w" : 1,
      "h" : 1,
      "name" : "swa_model\/sub_11\/y",
      "nd_rank" : 1,
      "type" : "load_constant",
      "k" : 1,
      "bottom" : "",
      "debug_info" : "swa_model\/sub_11\/y",
      "n" : 1,
      "weights" : {

      },
      "constant_blob" : 33
    },
    {
      "alpha" : -1,
      "bottom" : "swa_model\/sub_11\/y",
      "weights" : {

      },
      "mode" : 6,
      "debug_info" : "_neg_y_swa_model\/sub_11",
      "top" : "_neg_y_swa_model\/sub_11",
      "type" : "activation",
      "name" : "_neg_y_swa_model\/sub_11",
      "beta" : 0
    },
    {
      "bottom" : "swa_model\/Reshape_21,_neg_y_swa_model\/sub_11",
      "alpha" : 1,
      "operation" : 0,
      "weights" : {

      },
      "fused_relu" : 0,
      "debug_info" : "swa_model\/sub_11",
      "top" : "swa_model\/sub_11",
      "type" : "elementwise",
      "name" : "swa_model\/sub_11",
      "beta" : 0
    },
    {
      "axis_h" : 2,
      "axis_w" : 1,
      "bottom" : "swa_model\/Relu",
      "axis_k" : 0,
      "axis_n" : 3,
      "axis_seq" : 4,
      "weights" : {

      },
      "debug_info" : "transpose_375",
      "top" : "transpose_375",
      "type" : "transpose",
      "name" : "transpose_375"
    },
    {
      "pad_r" : 0,
      "fused_relu" : 0,
      "fused_tanh" : 0,
      "debug_info" : "conv_0",
      "pad_fill_mode" : 0,
      "pad_b" : 0,
      "pad_l" : 0,
      "top" : "conv_0",
      "blob_weights" : 37,
      "K" : 256,
      "blob_biases" : 35,
      "name" : "conv_0",
      "has_batch_norm" : 0,
      "type" : "convolution",
      "n_groups" : 1,
      "pad_t" : 0,
      "has_biases" : 1,
      "C" : 256,
      "bottom" : "transpose_375",
      "weights" : {

      },
      "Nx" : 3,
      "pad_mode" : 1,
      "pad_value" : 0,
      "Ny" : 3,
      "n_parallel" : 1
    },
    {
      "bottom" : "swa_model\/sub",
      "alpha" : 0.10000000149011612,
      "operation" : 1,
      "weights" : {

      },
      "fused_relu" : 0,
      "debug_info" : "_inversed_swa_model\/truediv",
      "top" : "_inversed_swa_model\/truediv",
      "type" : "elementwise",
      "name" : "_inversed_swa_model\/truediv",
      "beta" : 0
    },
    {
      "bottom" : "swa_model\/sub_1",
      "alpha" : 0.10000000149011612,
      "operation" : 1,
      "weights" : {

      },
      "fused_relu" : 0,
      "debug_info" : "_inversed_swa_model\/truediv_1",
      "top" : "_inversed_swa_model\/truediv_1",
      "type" : "elementwise",
      "name" : "_inversed_swa_model\/truediv_1",
      "beta" : 0
    },
    {
      "bottom" : "swa_model\/sub_2",
      "alpha" : 0.10000000149011612,
      "operation" : 1,
      "weights" : {

      },
      "fused_relu" : 0,
      "debug_info" : "_inversed_swa_model\/truediv_2",
      "top" : "_inversed_swa_model\/truediv_2",
      "type" : "elementwise",
      "name" : "_inversed_swa_model\/truediv_2",
      "beta" : 0
    },
    {
      "bottom" : "swa_model\/sub_3",
      "alpha" : 0.10000000149011612,
      "operation" : 1,
      "weights" : {

      },
      "fused_relu" : 0,
      "debug_info" : "_inversed_swa_model\/truediv_3",
      "top" : "_inversed_swa_model\/truediv_3",
      "type" : "elementwise",
      "name" : "_inversed_swa_model\/truediv_3",
      "beta" : 0
    },
    {
      "bottom" : "swa_model\/sub_4",
      "alpha" : 0.10000000149011612,
      "operation" : 1,
      "weights" : {

      },
      "fused_relu" : 0,
      "debug_info" : "_inversed_swa_model\/truediv_4",
      "top" : "_inversed_swa_model\/truediv_4",
      "type" : "elementwise",
      "name" : "_inversed_swa_model\/truediv_4",
      "beta" : 0
    },
    {
      "bottom" : "swa_model\/sub_5",
      "alpha" : 0.10000000149011612,
      "operation" : 1,
      "weights" : {

      },
      "fused_relu" : 0,
      "debug_info" : "_inversed_swa_model\/truediv_5",
      "top" : "_inversed_swa_model\/truediv_5",
      "type" : "elementwise",
      "name" : "_inversed_swa_model\/truediv_5",
      "beta" : 0
    },
    {
      "bottom" : "swa_model\/sub_6",
      "alpha" : 0.10000000149011612,
      "operation" : 1,
      "weights" : {

      },
      "fused_relu" : 0,
      "debug_info" : "_inversed_swa_model\/truediv_6",
      "top" : "_inversed_swa_model\/truediv_6",
      "type" : "elementwise",
      "name" : "_inversed_swa_model\/truediv_6",
      "beta" : 0
    },
    {
      "bottom" : "swa_model\/sub_7",
      "alpha" : 0.10000000149011612,
      "operation" : 1,
      "weights" : {

      },
      "fused_relu" : 0,
      "debug_info" : "_inversed_swa_model\/truediv_7",
      "top" : "_inversed_swa_model\/truediv_7",
      "type" : "elementwise",
      "name" : "_inversed_swa_model\/truediv_7",
      "beta" : 0
    },
    {
      "bottom" : "swa_model\/sub_10",
      "alpha" : 0.10000000149011612,
      "operation" : 1,
      "weights" : {

      },
      "fused_relu" : 0,
      "debug_info" : "_inversed_swa_model\/truediv_8",
      "top" : "_inversed_swa_model\/truediv_8",
      "type" : "elementwise",
      "name" : "_inversed_swa_model\/truediv_8",
      "beta" : 0
    },
    {
      "bottom" : "swa_model\/sub_11,swa_model\/sub_11",
      "alpha" : 1,
      "operation" : 1,
      "weights" : {

      },
      "fused_relu" : 0,
      "debug_info" : "swa_model\/Square",
      "top" : "swa_model\/Square",
      "type" : "elementwise",
      "name" : "swa_model\/Square",
      "beta" : 0
    },
    {
      "bottom" : "swa_model\/Square",
      "alpha" : 0.0099999997764825821,
      "operation" : 1,
      "weights" : {

      },
      "fused_relu" : 0,
      "debug_info" : "_inversed_swa_model\/truediv_9",
      "top" : "_inversed_swa_model\/truediv_9",
      "type" : "elementwise",
      "name" : "_inversed_swa_model\/truediv_9",
      "beta" : 0
    },
    {
      "axis_h" : 0,
      "axis_w" : 2,
      "bottom" : "conv_0",
      "axis_k" : 1,
      "axis_n" : 3,
      "axis_seq" : 4,
      "weights" : {

      },
      "debug_info" : "transpose_374",
      "top" : "transpose_374",
      "type" : "transpose",
      "name" : "transpose_374"
    },
    {
      "bottom" : "transpose_374",
      "weights" : {

      },
      "mode" : 0,
      "debug_info" : "swa_model\/Relu_1",
      "top" : "swa_model\/Relu_1",
      "type" : "activation",
      "name" : "swa_model\/Relu_1"
    },
    {
      "top" : "swa_model\/sub_12\/y",
      "w" : 1,
      "h" : 1,
      "name" : "swa_model\/sub_12\/y",
      "nd_rank" : 1,
      "type" : "load_constant",
      "k" : 1,
      "bottom" : "",
      "debug_info" : "swa_model\/sub_12\/y",
      "n" : 1,
      "weights" : {

      },
      "constant_blob" : 39
    },
    {
      "alpha" : -1,
      "bottom" : "swa_model\/sub_12\/y",
      "weights" : {

      },
      "mode" : 6,
      "debug_info" : "_neg_y_swa_model\/sub_12",
      "top" : "_neg_y_swa_model\/sub_12",
      "type" : "activation",
      "name" : "_neg_y_swa_model\/sub_12",
      "beta" : 0
    },
    {
      "bottom" : "_inversed_swa_model\/truediv_9,_neg_y_swa_model\/sub_12",
      "alpha" : 1,
      "operation" : 0,
      "weights" : {

      },
      "fused_relu" : 0,
      "debug_info" : "swa_model\/sub_12",
      "top" : "swa_model\/sub_12",
      "type" : "elementwise",
      "name" : "swa_model\/sub_12",
      "beta" : 0
    },
    {
      "axis_h" : 2,
      "axis_w" : 1,
      "bottom" : "swa_model\/Relu_1",
      "axis_k" : 0,
      "axis_n" : 3,
      "axis_seq" : 4,
      "weights" : {

      },
      "debug_info" : "transpose_373",
      "top" : "transpose_373",
      "type" : "transpose",
      "name" : "transpose_373"
    },
    {
      "pad_r" : 0,
      "fused_relu" : 0,
      "fused_tanh" : 0,
      "debug_info" : "swa_model\/Conv2D_2x",
      "pad_fill_mode" : 0,
      "pad_b" : 0,
      "pad_l" : 0,
      "top" : "swa_model\/Conv2D_2x",
      "blob_weights" : 41,
      "K" : 256,
      "name" : "swa_model\/Conv2D_2x",
      "has_batch_norm" : 0,
      "type" : "convolution",
      "n_groups" : 1,
      "pad_t" : 0,
      "has_biases" : 0,
      "C" : 256,
      "bottom" : "transpose_373",
      "weights" : {

      },
      "Nx" : 3,
      "pad_mode" : 1,
      "pad_value" : 0,
      "Ny" : 3,
      "n_parallel" : 1
    },
    {
      "axis_h" : 0,
      "axis_w" : 2,
      "bottom" : "swa_model\/Conv2D_2x",
      "axis_k" : 1,
      "axis_n" : 3,
      "axis_seq" : 4,
      "weights" : {

      },
      "debug_info" : "transpose_372",
      "top" : "transpose_372",
      "type" : "transpose",
      "name" : "transpose_372"
    },
    {
      "bottom" : "swa_model\/add,transpose_372",
      "alpha" : 1,
      "operation" : 0,
      "weights" : {

      },
      "fused_relu" : 0,
      "debug_info" : "swa_model\/add_4",
      "top" : "swa_model\/add_4",
      "type" : "elementwise",
      "name" : "swa_model\/add_4",
      "beta" : 0
    },
    {
      "top" : "swa_model\/rconv2\/norm1\/beta\/read\/_96__cf__96",
      "w" : 256,
      "h" : 1,
      "name" : "swa_model\/rconv2\/norm1\/beta\/read\/_96__cf__96",
      "nd_rank" : 1,
      "type" : "load_constant",
      "k" : 1,
      "bottom" : "",
      "debug_info" : "swa_model\/rconv2\/norm1\/beta\/read\/_96__cf__96",
      "n" : 1,
      "weights" : {

      },
      "constant_blob" : 43
    },
    {
      "bottom" : "swa_model\/add_4,swa_model\/rconv2\/norm1\/beta\/read\/_96__cf__96",
      "alpha" : 1,
      "operation" : 0,
      "weights" : {

      },
      "fused_relu" : 0,
      "debug_info" : "swa_model\/add_5",
      "nd_mode" : true,
      "top" : "swa_model\/add_5",
      "type" : "elementwise",
      "name" : "swa_model\/add_5",
      "beta" : 0
    },
    {
      "bottom" : "swa_model\/add_5",
      "weights" : {

      },
      "mode" : 0,
      "debug_info" : "swa_model\/Relu_2",
      "top" : "swa_model\/Relu_2",
      "type" : "activation",
      "name" : "swa_model\/Relu_2"
    },
    {
      "axis_h" : 2,
      "axis_w" : 1,
      "bottom" : "swa_model\/Relu_2",
      "axis_k" : 0,
      "axis_n" : 3,
      "axis_seq" : 4,
      "weights" : {

      },
      "debug_info" : "transpose_371",
      "top" : "transpose_371",
      "type" : "transpose",
      "name" : "transpose_371"
    },
    {
      "pad_r" : 0,
      "fused_relu" : 0,
      "fused_tanh" : 0,
      "debug_info" : "conv_1",
      "pad_fill_mode" : 0,
      "pad_b" : 0,
      "pad_l" : 0,
      "top" : "conv_1",
      "blob_weights" : 47,
      "K" : 256,
      "blob_biases" : 45,
      "name" : "conv_1",
      "has_batch_norm" : 0,
      "type" : "convolution",
      "n_groups" : 1,
      "pad_t" : 0,
      "has_biases" : 1,
      "C" : 256,
      "bottom" : "transpose_371",
      "weights" : {

      },
      "Nx" : 3,
      "pad_mode" : 1,
      "pad_value" : 0,
      "Ny" : 3,
      "n_parallel" : 1
    },
    {
      "axis_h" : 0,
      "axis_w" : 2,
      "bottom" : "conv_1",
      "axis_k" : 1,
      "axis_n" : 3,
      "axis_seq" : 4,
      "weights" : {

      },
      "debug_info" : "transpose_370",
      "top" : "transpose_370",
      "type" : "transpose",
      "name" : "transpose_370"
    },
    {
      "bottom" : "transpose_370",
      "weights" : {

      },
      "mode" : 0,
      "debug_info" : "swa_model\/Relu_3",
      "top" : "swa_model\/Relu_3",
      "type" : "activation",
      "name" : "swa_model\/Relu_3"
    },
    {
      "axis_h" : 2,
      "axis_w" : 1,
      "bottom" : "swa_model\/Relu_3",
      "axis_k" : 0,
      "axis_n" : 3,
      "axis_seq" : 4,
      "weights" : {

      },
      "debug_info" : "transpose_369",
      "top" : "transpose_369",
      "type" : "transpose",
      "name" : "transpose_369"
    },
    {
      "pad_r" : 0,
      "fused_relu" : 0,
      "fused_tanh" : 0,
      "debug_info" : "swa_model\/Conv2D_4x",
      "pad_fill_mode" : 0,
      "pad_b" : 0,
      "pad_l" : 0,
      "top" : "swa_model\/Conv2D_4x",
      "blob_weights" : 49,
      "K" : 256,
      "name" : "swa_model\/Conv2D_4x",
      "has_batch_norm" : 0,
      "type" : "convolution",
      "n_groups" : 1,
      "pad_t" : 0,
      "has_biases" : 0,
      "C" : 256,
      "bottom" : "transpose_369",
      "weights" : {

      },
      "Nx" : 3,
      "pad_mode" : 1,
      "pad_value" : 0,
      "Ny" : 3,
      "n_parallel" : 1
    },
    {
      "axis_h" : 0,
      "axis_w" : 2,
      "bottom" : "swa_model\/Conv2D_4x",
      "axis_k" : 1,
      "axis_n" : 3,
      "axis_seq" : 4,
      "weights" : {

      },
      "debug_info" : "transpose_368",
      "top" : "transpose_368",
      "type" : "transpose",
      "name" : "transpose_368"
    },
    {
      "bottom" : "swa_model\/add_4,transpose_368",
      "alpha" : 1,
      "operation" : 0,
      "weights" : {

      },
      "fused_relu" : 0,
      "debug_info" : "swa_model\/add_8",
      "top" : "swa_model\/add_8",
      "type" : "elementwise",
      "name" : "swa_model\/add_8",
      "beta" : 0
    },
    {
      "top" : "swa_model\/rconv3\/norm1\/beta\/read\/_155__cf__155",
      "w" : 256,
      "h" : 1,
      "name" : "swa_model\/rconv3\/norm1\/beta\/read\/_155__cf__155",
      "nd_rank" : 1,
      "type" : "load_constant",
      "k" : 1,
      "bottom" : "",
      "debug_info" : "swa_model\/rconv3\/norm1\/beta\/read\/_155__cf__155",
      "n" : 1,
      "weights" : {

      },
      "constant_blob" : 51
    },
    {
      "bottom" : "swa_model\/add_8,swa_model\/rconv3\/norm1\/beta\/read\/_155__cf__155",
      "alpha" : 1,
      "operation" : 0,
      "weights" : {

      },
      "fused_relu" : 0,
      "debug_info" : "swa_model\/add_9",
      "nd_mode" : true,
      "top" : "swa_model\/add_9",
      "type" : "elementwise",
      "name" : "swa_model\/add_9",
      "beta" : 0
    },
    {
      "bottom" : "swa_model\/add_9",
      "weights" : {

      },
      "mode" : 0,
      "debug_info" : "swa_model\/Relu_4",
      "top" : "swa_model\/Relu_4",
      "type" : "activation",
      "name" : "swa_model\/Relu_4"
    },
    {
      "axis_h" : 2,
      "axis_w" : 1,
      "bottom" : "swa_model\/Relu_4",
      "axis_k" : 0,
      "axis_n" : 3,
      "axis_seq" : 4,
      "weights" : {

      },
      "debug_info" : "transpose_367",
      "top" : "transpose_367",
      "type" : "transpose",
      "name" : "transpose_367"
    },
    {
      "pad_r" : 0,
      "fused_relu" : 0,
      "fused_tanh" : 0,
      "debug_info" : "conv_2",
      "pad_fill_mode" : 0,
      "pad_b" : 0,
      "pad_l" : 0,
      "top" : "conv_2",
      "blob_weights" : 55,
      "K" : 256,
      "blob_biases" : 53,
      "name" : "conv_2",
      "has_batch_norm" : 0,
      "type" : "convolution",
      "n_groups" : 1,
      "pad_t" : 0,
      "has_biases" : 1,
      "C" : 256,
      "bottom" : "transpose_367",
      "weights" : {

      },
      "Nx" : 3,
      "pad_mode" : 1,
      "pad_value" : 0,
      "Ny" : 3,
      "n_parallel" : 1
    },
    {
      "axis_h" : 0,
      "axis_w" : 2,
      "bottom" : "conv_2",
      "axis_k" : 1,
      "axis_n" : 3,
      "axis_seq" : 4,
      "weights" : {

      },
      "debug_info" : "transpose_366",
      "top" : "transpose_366",
      "type" : "transpose",
      "name" : "transpose_366"
    },
    {
      "bottom" : "transpose_366",
      "weights" : {

      },
      "mode" : 0,
      "debug_info" : "swa_model\/Relu_5",
      "top" : "swa_model\/Relu_5",
      "type" : "activation",
      "name" : "swa_model\/Relu_5"
    },
    {
      "axis_h" : 2,
      "axis_w" : 1,
      "bottom" : "swa_model\/Relu_5",
      "axis_k" : 0,
      "axis_n" : 3,
      "axis_seq" : 4,
      "weights" : {

      },
      "debug_info" : "transpose_365",
      "top" : "transpose_365",
      "type" : "transpose",
      "name" : "transpose_365"
    },
    {
      "pad_r" : 0,
      "fused_relu" : 0,
      "fused_tanh" : 0,
      "debug_info" : "swa_model\/Conv2D_6x",
      "pad_fill_mode" : 0,
      "pad_b" : 0,
      "pad_l" : 0,
      "top" : "swa_model\/Conv2D_6x",
      "blob_weights" : 57,
      "K" : 256,
      "name" : "swa_model\/Conv2D_6x",
      "has_batch_norm" : 0,
      "type" : "convolution",
      "n_groups" : 1,
      "pad_t" : 0,
      "has_biases" : 0,
      "C" : 256,
      "bottom" : "transpose_365",
      "weights" : {

      },
      "Nx" : 3,
      "pad_mode" : 1,
      "pad_value" : 0,
      "Ny" : 3,
      "n_parallel" : 1
    },
    {
      "axis_h" : 0,
      "axis_w" : 2,
      "bottom" : "swa_model\/Conv2D_6x",
      "axis_k" : 1,
      "axis_n" : 3,
      "axis_seq" : 4,
      "weights" : {

      },
      "debug_info" : "transpose_364",
      "top" : "transpose_364",
      "type" : "transpose",
      "name" : "transpose_364"
    },
    {
      "bottom" : "swa_model\/add_8,transpose_364",
      "alpha" : 1,
      "operation" : 0,
      "weights" : {

      },
      "fused_relu" : 0,
      "debug_info" : "swa_model\/add_12",
      "top" : "swa_model\/add_12",
      "type" : "elementwise",
      "name" : "swa_model\/add_12",
      "beta" : 0
    },
    {
      "top" : "swa_model\/rconv4\/norm1\/beta\/read\/_214__cf__214",
      "w" : 256,
      "h" : 1,
      "name" : "swa_model\/rconv4\/norm1\/beta\/read\/_214__cf__214",
      "nd_rank" : 1,
      "type" : "load_constant",
      "k" : 1,
      "bottom" : "",
      "debug_info" : "swa_model\/rconv4\/norm1\/beta\/read\/_214__cf__214",
      "n" : 1,
      "weights" : {

      },
      "constant_blob" : 59
    },
    {
      "bottom" : "swa_model\/add_12,swa_model\/rconv4\/norm1\/beta\/read\/_214__cf__214",
      "alpha" : 1,
      "operation" : 0,
      "weights" : {

      },
      "fused_relu" : 0,
      "debug_info" : "swa_model\/add_13",
      "nd_mode" : true,
      "top" : "swa_model\/add_13",
      "type" : "elementwise",
      "name" : "swa_model\/add_13",
      "beta" : 0
    },
    {
      "bottom" : "swa_model\/add_13",
      "weights" : {

      },
      "mode" : 0,
      "debug_info" : "swa_model\/Relu_6",
      "top" : "swa_model\/Relu_6",
      "type" : "activation",
      "name" : "swa_model\/Relu_6"
    },
    {
      "axis_h" : 2,
      "axis_w" : 1,
      "bottom" : "swa_model\/Relu_6",
      "axis_k" : 0,
      "axis_n" : 3,
      "axis_seq" : 4,
      "weights" : {

      },
      "debug_info" : "transpose_363",
      "top" : "transpose_363",
      "type" : "transpose",
      "name" : "transpose_363"
    },
    {
      "pad_r" : 0,
      "fused_relu" : 0,
      "fused_tanh" : 0,
      "debug_info" : "conv_3",
      "pad_fill_mode" : 0,
      "pad_b" : 0,
      "pad_l" : 0,
      "top" : "conv_3",
      "blob_weights" : 63,
      "K" : 256,
      "blob_biases" : 61,
      "name" : "conv_3",
      "has_batch_norm" : 0,
      "type" : "convolution",
      "n_groups" : 1,
      "pad_t" : 0,
      "has_biases" : 1,
      "C" : 256,
      "bottom" : "transpose_363",
      "weights" : {

      },
      "Nx" : 3,
      "pad_mode" : 1,
      "pad_value" : 0,
      "Ny" : 3,
      "n_parallel" : 1
    },
    {
      "axis_h" : 0,
      "axis_w" : 2,
      "bottom" : "conv_3",
      "axis_k" : 1,
      "axis_n" : 3,
      "axis_seq" : 4,
      "weights" : {

      },
      "debug_info" : "transpose_362",
      "top" : "transpose_362",
      "type" : "transpose",
      "name" : "transpose_362"
    },
    {
      "bottom" : "transpose_362",
      "weights" : {

      },
      "mode" : 0,
      "debug_info" : "swa_model\/Relu_7",
      "top" : "swa_model\/Relu_7",
      "type" : "activation",
      "name" : "swa_model\/Relu_7"
    },
    {
      "axis_h" : 2,
      "axis_w" : 1,
      "bottom" : "swa_model\/Relu_7",
      "axis_k" : 0,
      "axis_n" : 3,
      "axis_seq" : 4,
      "weights" : {

      },
      "debug_info" : "transpose_361",
      "top" : "transpose_361",
      "type" : "transpose",
      "name" : "transpose_361"
    },
    {
      "pad_r" : 0,
      "fused_relu" : 0,
      "fused_tanh" : 0,
      "debug_info" : "swa_model\/Conv2D_8x",
      "pad_fill_mode" : 0,
      "pad_b" : 0,
      "pad_l" : 0,
      "top" : "swa_model\/Conv2D_8x",
      "blob_weights" : 65,
      "K" : 256,
      "name" : "swa_model\/Conv2D_8x",
      "has_batch_norm" : 0,
      "type" : "convolution",
      "n_groups" : 1,
      "pad_t" : 0,
      "has_biases" : 0,
      "C" : 256,
      "bottom" : "transpose_361",
      "weights" : {

      },
      "Nx" : 3,
      "pad_mode" : 1,
      "pad_value" : 0,
      "Ny" : 3,
      "n_parallel" : 1
    },
    {
      "axis_h" : 0,
      "axis_w" : 2,
      "bottom" : "swa_model\/Conv2D_8x",
      "axis_k" : 1,
      "axis_n" : 3,
      "axis_seq" : 4,
      "weights" : {

      },
      "debug_info" : "transpose_360",
      "top" : "transpose_360",
      "type" : "transpose",
      "name" : "transpose_360"
    },
    {
      "bottom" : "swa_model\/add_12,transpose_360",
      "alpha" : 1,
      "operation" : 0,
      "weights" : {

      },
      "fused_relu" : 0,
      "debug_info" : "swa_model\/add_16",
      "top" : "swa_model\/add_16",
      "type" : "elementwise",
      "name" : "swa_model\/add_16",
      "beta" : 0
    },
    {
      "top" : "swa_model\/rconv5\/norm1\/beta\/read\/_224__cf__224",
      "w" : 256,
      "h" : 1,
      "name" : "swa_model\/rconv5\/norm1\/beta\/read\/_224__cf__224",
      "nd_rank" : 1,
      "type" : "load_constant",
      "k" : 1,
      "bottom" : "",
      "debug_info" : "swa_model\/rconv5\/norm1\/beta\/read\/_224__cf__224",
      "n" : 1,
      "weights" : {

      },
      "constant_blob" : 67
    },
    {
      "bottom" : "swa_model\/add_16,swa_model\/rconv5\/norm1\/beta\/read\/_224__cf__224",
      "alpha" : 1,
      "operation" : 0,
      "weights" : {

      },
      "fused_relu" : 0,
      "debug_info" : "swa_model\/add_17",
      "nd_mode" : true,
      "top" : "swa_model\/add_17",
      "type" : "elementwise",
      "name" : "swa_model\/add_17",
      "beta" : 0
    },
    {
      "bottom" : "swa_model\/add_17",
      "weights" : {

      },
      "mode" : 0,
      "debug_info" : "swa_model\/Relu_8",
      "top" : "swa_model\/Relu_8",
      "type" : "activation",
      "name" : "swa_model\/Relu_8"
    },
    {
      "axis_h" : 2,
      "axis_w" : 1,
      "bottom" : "swa_model\/Relu_8",
      "axis_k" : 0,
      "axis_n" : 3,
      "axis_seq" : 4,
      "weights" : {

      },
      "debug_info" : "transpose_359",
      "top" : "transpose_359",
      "type" : "transpose",
      "name" : "transpose_359"
    },
    {
      "pad_r" : 0,
      "fused_relu" : 0,
      "fused_tanh" : 0,
      "debug_info" : "conv_4",
      "pad_fill_mode" : 0,
      "pad_b" : 0,
      "pad_l" : 0,
      "top" : "conv_4",
      "blob_weights" : 71,
      "K" : 256,
      "blob_biases" : 69,
      "name" : "conv_4",
      "has_batch_norm" : 0,
      "type" : "convolution",
      "n_groups" : 1,
      "pad_t" : 0,
      "has_biases" : 1,
      "C" : 256,
      "bottom" : "transpose_359",
      "weights" : {

      },
      "Nx" : 3,
      "pad_mode" : 1,
      "pad_value" : 0,
      "Ny" : 3,
      "n_parallel" : 1
    },
    {
      "axis_h" : 0,
      "axis_w" : 2,
      "bottom" : "conv_4",
      "axis_k" : 1,
      "axis_n" : 3,
      "axis_seq" : 4,
      "weights" : {

      },
      "debug_info" : "transpose_358",
      "top" : "transpose_358",
      "type" : "transpose",
      "name" : "transpose_358"
    },
    {
      "bottom" : "transpose_358",
      "weights" : {

      },
      "mode" : 0,
      "debug_info" : "swa_model\/Relu_9",
      "top" : "swa_model\/Relu_9",
      "type" : "activation",
      "name" : "swa_model\/Relu_9"
    },
    {
      "axis_h" : 2,
      "axis_w" : 1,
      "bottom" : "swa_model\/Relu_9",
      "axis_k" : 0,
      "axis_n" : 3,
      "axis_seq" : 4,
      "weights" : {

      },
      "debug_info" : "transpose_357",
      "top" : "transpose_357",
      "type" : "transpose",
      "name" : "transpose_357"
    },
    {
      "pad_r" : 0,
      "fused_relu" : 0,
      "fused_tanh" : 0,
      "debug_info" : "swa_model\/Conv2D_10x",
      "pad_fill_mode" : 0,
      "pad_b" : 0,
      "pad_l" : 0,
      "top" : "swa_model\/Conv2D_10x",
      "blob_weights" : 73,
      "K" : 256,
      "name" : "swa_model\/Conv2D_10x",
      "has_batch_norm" : 0,
      "type" : "convolution",
      "n_groups" : 1,
      "pad_t" : 0,
      "has_biases" : 0,
      "C" : 256,
      "bottom" : "transpose_357",
      "weights" : {

      },
      "Nx" : 3,
      "pad_mode" : 1,
      "pad_value" : 0,
      "Ny" : 3,
      "n_parallel" : 1
    },
    {
      "axis_h" : 0,
      "axis_w" : 2,
      "bottom" : "swa_model\/Conv2D_10x",
      "axis_k" : 1,
      "axis_n" : 3,
      "axis_seq" : 4,
      "weights" : {

      },
      "debug_info" : "transpose_356",
      "top" : "transpose_356",
      "type" : "transpose",
      "name" : "transpose_356"
    },
    {
      "bottom" : "swa_model\/add_16,transpose_356",
      "alpha" : 1,
      "operation" : 0,
      "weights" : {

      },
      "fused_relu" : 0,
      "debug_info" : "swa_model\/add_20",
      "top" : "swa_model\/add_20",
      "type" : "elementwise",
      "name" : "swa_model\/add_20",
      "beta" : 0
    },
    {
      "top" : "swa_model\/rconv6\/norm1\/beta\/read\/_229__cf__229",
      "w" : 256,
      "h" : 1,
      "name" : "swa_model\/rconv6\/norm1\/beta\/read\/_229__cf__229",
      "nd_rank" : 1,
      "type" : "load_constant",
      "k" : 1,
      "bottom" : "",
      "debug_info" : "swa_model\/rconv6\/norm1\/beta\/read\/_229__cf__229",
      "n" : 1,
      "weights" : {

      },
      "constant_blob" : 75
    },
    {
      "bottom" : "swa_model\/add_20,swa_model\/rconv6\/norm1\/beta\/read\/_229__cf__229",
      "alpha" : 1,
      "operation" : 0,
      "weights" : {

      },
      "fused_relu" : 0,
      "debug_info" : "swa_model\/add_21",
      "nd_mode" : true,
      "top" : "swa_model\/add_21",
      "type" : "elementwise",
      "name" : "swa_model\/add_21",
      "beta" : 0
    },
    {
      "bottom" : "swa_model\/add_21",
      "weights" : {

      },
      "mode" : 0,
      "debug_info" : "swa_model\/Relu_10",
      "top" : "swa_model\/Relu_10",
      "type" : "activation",
      "name" : "swa_model\/Relu_10"
    },
    {
      "axis_h" : 2,
      "axis_w" : 1,
      "bottom" : "swa_model\/Relu_10",
      "axis_k" : 0,
      "axis_n" : 3,
      "axis_seq" : 4,
      "weights" : {

      },
      "debug_info" : "transpose_355",
      "top" : "transpose_355",
      "type" : "transpose",
      "name" : "transpose_355"
    },
    {
      "pad_r" : 0,
      "fused_relu" : 0,
      "fused_tanh" : 0,
      "debug_info" : "conv_5",
      "pad_fill_mode" : 0,
      "pad_b" : 0,
      "pad_l" : 0,
      "top" : "conv_5",
      "blob_weights" : 79,
      "K" : 256,
      "blob_biases" : 77,
      "name" : "conv_5",
      "has_batch_norm" : 0,
      "type" : "convolution",
      "n_groups" : 1,
      "pad_t" : 0,
      "has_biases" : 1,
      "C" : 64,
      "bottom" : "transpose_355",
      "weights" : {

      },
      "Nx" : 3,
      "pad_mode" : 1,
      "pad_value" : 0,
      "Ny" : 3,
      "n_parallel" : 1
    },
    {
      "axis_h" : 2,
      "axis_w" : 1,
      "bottom" : "swa_model\/Relu_10",
      "axis_k" : 0,
      "axis_n" : 3,
      "axis_seq" : 4,
      "weights" : {

      },
      "debug_info" : "transpose_353",
      "top" : "transpose_353",
      "type" : "transpose",
      "name" : "transpose_353"
    },
    {
      "pad_r" : 0,
      "fused_relu" : 0,
      "fused_tanh" : 0,
      "debug_info" : "swa_model\/Conv2D_11x",
      "pad_fill_mode" : 0,
      "pad_b" : 0,
      "pad_l" : 0,
      "top" : "swa_model\/Conv2D_11x",
      "blob_weights" : 81,
      "K" : 256,
      "name" : "swa_model\/Conv2D_11x",
      "has_batch_norm" : 0,
      "type" : "convolution",
      "n_groups" : 1,
      "pad_t" : 0,
      "has_biases" : 0,
      "C" : 192,
      "bottom" : "transpose_353",
      "weights" : {

      },
      "Nx" : 3,
      "pad_mode" : 1,
      "pad_value" : 0,
      "Ny" : 3,
      "n_parallel" : 1
    },
    {
      "axis_h" : 0,
      "axis_w" : 2,
      "bottom" : "swa_model\/Conv2D_11x",
      "axis_k" : 1,
      "axis_n" : 3,
      "axis_seq" : 4,
      "weights" : {

      },
      "debug_info" : "transpose_352",
      "top" : "transpose_352",
      "type" : "transpose",
      "name" : "transpose_352"
    },
    {
      "top" : "swa_model\/rconv6\/norm2\/gamma\/read\/_232__cf__232",
      "w" : 192,
      "h" : 1,
      "name" : "swa_model\/rconv6\/norm2\/gamma\/read\/_232__cf__232",
      "nd_rank" : 1,
      "type" : "load_constant",
      "k" : 1,
      "bottom" : "",
      "debug_info" : "swa_model\/rconv6\/norm2\/gamma\/read\/_232__cf__232",
      "n" : 1,
      "weights" : {

      },
      "constant_blob" : 83
    },
    {
      "bottom" : "transpose_352,swa_model\/rconv6\/norm2\/gamma\/read\/_232__cf__232",
      "alpha" : 1,
      "operation" : 1,
      "weights" : {

      },
      "fused_relu" : 0,
      "debug_info" : "swa_model\/mul_21",
      "nd_mode" : true,
      "top" : "swa_model\/mul_21",
      "type" : "elementwise",
      "name" : "swa_model\/mul_21",
      "beta" : 0
    },
    {
      "axis_h" : 0,
      "axis_w" : 2,
      "bottom" : "conv_5",
      "axis_k" : 1,
      "axis_n" : 3,
      "axis_seq" : 4,
      "weights" : {

      },
      "debug_info" : "transpose_354",
      "top" : "transpose_354",
      "type" : "transpose",
      "name" : "transpose_354"
    },
    {
      "bottom" : "transpose_354",
      "weights" : {

      },
      "mode" : 0,
      "debug_info" : "swa_model\/Relu_11",
      "top" : "swa_model\/Relu_11",
      "type" : "activation",
      "name" : "swa_model\/Relu_11"
    },
    {
      "top" : "swa_model\/rconv6\/norm2\/beta\/read\/_231__cf__231",
      "w" : 192,
      "h" : 1,
      "name" : "swa_model\/rconv6\/norm2\/beta\/read\/_231__cf__231",
      "nd_rank" : 1,
      "type" : "load_constant",
      "k" : 1,
      "bottom" : "",
      "debug_info" : "swa_model\/rconv6\/norm2\/beta\/read\/_231__cf__231",
      "n" : 1,
      "weights" : {

      },
      "constant_blob" : 85
    },
    {
      "bottom" : "swa_model\/mul_21,swa_model\/rconv6\/norm2\/beta\/read\/_231__cf__231",
      "alpha" : 1,
      "operation" : 0,
      "weights" : {

      },
      "fused_relu" : 0,
      "debug_info" : "swa_model\/add_24",
      "nd_mode" : true,
      "top" : "swa_model\/add_24",
      "type" : "elementwise",
      "name" : "swa_model\/add_24",
      "beta" : 0
    },
    {
      "axis_mode" : 4,
      "bottom" : "swa_model\/Relu_11",
      "weights" : {

      },
      "mode" : 1,
      "nd_axis" : 1,
      "nd_mode" : true,
      "debug_info" : "swa_model\/Mean",
      "use_version" : 1,
      "top" : "swa_model\/Relu_11__reduction_axis__1",
      "type" : "reduce",
      "name" : "swa_model\/Mean__reduction_axis__0"
    },
    {
      "axis_mode" : 2,
      "bottom" : "swa_model\/Relu_11__reduction_axis__1",
      "weights" : {

      },
      "mode" : 1,
      "nd_axis" : 2,
      "nd_mode" : true,
      "debug_info" : "swa_model\/Mean",
      "use_version" : 1,
      "top" : "swa_model\/Mean",
      "type" : "reduce",
      "name" : "swa_model\/Mean"
    },
    {
      "axis_mode" : 4,
      "bottom" : "swa_model\/Relu_11",
      "weights" : {

      },
      "mode" : 9,
      "nd_axis" : 1,
      "nd_mode" : true,
      "debug_info" : "swa_model\/Max",
      "use_version" : 1,
      "top" : "swa_model\/Relu_11__reduction_axis__1_@ssa_version_1",
      "type" : "reduce",
      "name" : "swa_model\/Max__reduction_axis__0"
    },
    {
      "axis_mode" : 2,
      "bottom" : "swa_model\/Relu_11__reduction_axis__1_@ssa_version_1",
      "weights" : {

      },
      "mode" : 9,
      "nd_axis" : 2,
      "nd_mode" : true,
      "debug_info" : "swa_model\/Max",
      "use_version" : 1,
      "top" : "swa_model\/Max",
      "type" : "reduce",
      "name" : "swa_model\/Max"
    },
    {
      "bottom" : "swa_model\/Mean,_inversed_swa_model\/truediv",
      "alpha" : 1,
      "operation" : 1,
      "weights" : {

      },
      "fused_relu" : 0,
      "debug_info" : "swa_model\/mul_19",
      "nd_mode" : true,
      "top" : "swa_model\/mul_19",
      "type" : "elementwise",
      "name" : "swa_model\/mul_19",
      "beta" : 0
    },
    {
      "bottom" : "swa_model\/Mean,swa_model\/mul_19,swa_model\/Max",
      "weights" : {

      },
      "nd_mode" : true,
      "axis" : 3,
      "debug_info" : "swa_model\/concat",
      "top" : "swa_model\/concat",
      "type" : "general_concat",
      "name" : "swa_model\/concat"
    },
    {
      "name" : "swa_model\/Tensordot_1\/Reshape",
      "weights" : {

      },
      "dst_w" : 192,
      "version" : 1,
      "dst_n" : 1,
      "dst_nd_rank" : 2,
      "type" : "reshape",
      "dst_h" : -1,
      "mode" : 0,
      "dynamic_shape" : false,
      "bottom" : "swa_model\/concat",
      "debug_info" : "swa_model\/Tensordot_1\/Reshape",
      "dst_seq" : 1,
      "dst_k" : 1,
      "top" : "swa_model\/Tensordot_1\/Reshape"
    },
    {
      "nB" : 192,
      "top" : "swa_model\/Tensordot_1\/MatMul",
      "has_biases" : 0,
      "weights" : {

      },
      "nC" : 192,
      "blob_weights" : 87,
      "type" : "inner_product",
      "has_relu" : 0,
      "bottom" : "swa_model\/Tensordot_1\/Reshape",
      "debug_info" : "swa_model\/Tensordot_1\/MatMul",
      "has_tanh" : 0,
      "nd_mode" : true,
      "name" : "swa_model\/Tensordot_1\/MatMul",
      "has_prelu" : 0
    },
    {
      "name" : "swa_model\/Tensordot_1",
      "weights" : {

      },
      "dst_w" : 192,
      "version" : 1,
      "dst_n" : -1,
      "dst_nd_rank" : 4,
      "type" : "reshape",
      "dst_h" : 1,
      "mode" : 0,
      "dynamic_shape" : false,
      "bottom" : "swa_model\/Tensordot_1\/MatMul",
      "debug_info" : "swa_model\/Tensordot_1",
      "dst_seq" : 1,
      "dst_k" : 1,
      "top" : "swa_model\/Tensordot_1"
    },
    {
      "bottom" : "swa_model\/Tensordot_1,swa_model\/rconv6\/norm2\/gamma\/read\/_232__cf__232",
      "alpha" : 1,
      "operation" : 1,
      "weights" : {

      },
      "fused_relu" : 0,
      "debug_info" : "swa_model\/mul_22",
      "top" : "swa_model\/mul_22",
      "type" : "elementwise",
      "name" : "swa_model\/mul_22",
      "beta" : 0
    },
    {
      "bottom" : "swa_model\/add_24,swa_model\/mul_22",
      "alpha" : 1,
      "operation" : 0,
      "weights" : {

      },
      "fused_relu" : 0,
      "debug_info" : "swa_model\/add_25",
      "nd_mode" : true,
      "top" : "swa_model\/add_25",
      "type" : "elementwise",
      "name" : "swa_model\/add_25",
      "beta" : 0
    },
    {
      "bottom" : "swa_model\/add_25",
      "weights" : {

      },
      "mode" : 0,
      "debug_info" : "swa_model\/Relu_12",
      "top" : "swa_model\/Relu_12",
      "type" : "activation",
      "name" : "swa_model\/Relu_12"
    },
    {
      "axis_h" : 2,
      "axis_w" : 1,
      "bottom" : "swa_model\/Relu_12",
      "axis_k" : 0,
      "axis_n" : 3,
      "axis_seq" : 4,
      "weights" : {

      },
      "debug_info" : "transpose_351",
      "top" : "transpose_351",
      "type" : "transpose",
      "name" : "transpose_351"
    },
    {
      "pad_r" : 0,
      "fused_relu" : 0,
      "fused_tanh" : 0,
      "debug_info" : "swa_model\/Conv2D_13x",
      "pad_fill_mode" : 0,
      "pad_b" : 0,
      "pad_l" : 0,
      "top" : "swa_model\/Conv2D_13x",
      "blob_weights" : 89,
      "K" : 192,
      "name" : "swa_model\/Conv2D_13x",
      "has_batch_norm" : 0,
      "type" : "convolution",
      "n_groups" : 1,
      "pad_t" : 0,
      "has_biases" : 0,
      "C" : 256,
      "bottom" : "transpose_351",
      "weights" : {

      },
      "Nx" : 3,
      "pad_mode" : 1,
      "pad_value" : 0,
      "Ny" : 3,
      "n_parallel" : 1
    },
    {
      "axis_h" : 0,
      "axis_w" : 2,
      "bottom" : "swa_model\/Conv2D_13x",
      "axis_k" : 1,
      "axis_n" : 3,
      "axis_seq" : 4,
      "weights" : {

      },
      "debug_info" : "transpose_350",
      "top" : "transpose_350",
      "type" : "transpose",
      "name" : "transpose_350"
    },
    {
      "bottom" : "swa_model\/add_20,transpose_350",
      "alpha" : 1,
      "operation" : 0,
      "weights" : {

      },
      "fused_relu" : 0,
      "debug_info" : "swa_model\/add_26",
      "nd_mode" : true,
      "top" : "swa_model\/add_26",
      "type" : "elementwise",
      "name" : "swa_model\/add_26",
      "beta" : 0
    },
    {
      "top" : "swa_model\/rconv7\/norm1\/beta\/read\/_236__cf__236",
      "w" : 256,
      "h" : 1,
      "name" : "swa_model\/rconv7\/norm1\/beta\/read\/_236__cf__236",
      "nd_rank" : 1,
      "type" : "load_constant",
      "k" : 1,
      "bottom" : "",
      "debug_info" : "swa_model\/rconv7\/norm1\/beta\/read\/_236__cf__236",
      "n" : 1,
      "weights" : {

      },
      "constant_blob" : 91
    },
    {
      "bottom" : "swa_model\/add_26,swa_model\/rconv7\/norm1\/beta\/read\/_236__cf__236",
      "alpha" : 1,
      "operation" : 0,
      "weights" : {

      },
      "fused_relu" : 0,
      "debug_info" : "swa_model\/add_27",
      "nd_mode" : true,
      "top" : "swa_model\/add_27",
      "type" : "elementwise",
      "name" : "swa_model\/add_27",
      "beta" : 0
    },
    {
      "bottom" : "swa_model\/add_27",
      "weights" : {

      },
      "mode" : 0,
      "debug_info" : "swa_model\/Relu_13",
      "top" : "swa_model\/Relu_13",
      "type" : "activation",
      "name" : "swa_model\/Relu_13"
    },
    {
      "axis_h" : 2,
      "axis_w" : 1,
      "bottom" : "swa_model\/Relu_13",
      "axis_k" : 0,
      "axis_n" : 3,
      "axis_seq" : 4,
      "weights" : {

      },
      "debug_info" : "transpose_349",
      "top" : "transpose_349",
      "type" : "transpose",
      "name" : "transpose_349"
    },
    {
      "pad_r" : 0,
      "fused_relu" : 0,
      "fused_tanh" : 0,
      "debug_info" : "conv_6",
      "pad_fill_mode" : 0,
      "pad_b" : 0,
      "pad_l" : 0,
      "top" : "conv_6",
      "blob_weights" : 95,
      "K" : 256,
      "blob_biases" : 93,
      "name" : "conv_6",
      "has_batch_norm" : 0,
      "type" : "convolution",
      "n_groups" : 1,
      "pad_t" : 0,
      "has_biases" : 1,
      "C" : 256,
      "bottom" : "transpose_349",
      "weights" : {

      },
      "Nx" : 3,
      "pad_mode" : 1,
      "pad_value" : 0,
      "Ny" : 3,
      "n_parallel" : 1
    },
    {
      "axis_h" : 0,
      "axis_w" : 2,
      "bottom" : "conv_6",
      "axis_k" : 1,
      "axis_n" : 3,
      "axis_seq" : 4,
      "weights" : {

      },
      "debug_info" : "transpose_348",
      "top" : "transpose_348",
      "type" : "transpose",
      "name" : "transpose_348"
    },
    {
      "bottom" : "transpose_348",
      "weights" : {

      },
      "mode" : 0,
      "debug_info" : "swa_model\/Relu_14",
      "top" : "swa_model\/Relu_14",
      "type" : "activation",
      "name" : "swa_model\/Relu_14"
    },
    {
      "axis_h" : 2,
      "axis_w" : 1,
      "bottom" : "swa_model\/Relu_14",
      "axis_k" : 0,
      "axis_n" : 3,
      "axis_seq" : 4,
      "weights" : {

      },
      "debug_info" : "transpose_347",
      "top" : "transpose_347",
      "type" : "transpose",
      "name" : "transpose_347"
    },
    {
      "pad_r" : 0,
      "fused_relu" : 0,
      "fused_tanh" : 0,
      "debug_info" : "swa_model\/Conv2D_15x",
      "pad_fill_mode" : 0,
      "pad_b" : 0,
      "pad_l" : 0,
      "top" : "swa_model\/Conv2D_15x",
      "blob_weights" : 97,
      "K" : 256,
      "name" : "swa_model\/Conv2D_15x",
      "has_batch_norm" : 0,
      "type" : "convolution",
      "n_groups" : 1,
      "pad_t" : 0,
      "has_biases" : 0,
      "C" : 256,
      "bottom" : "transpose_347",
      "weights" : {

      },
      "Nx" : 3,
      "pad_mode" : 1,
      "pad_value" : 0,
      "Ny" : 3,
      "n_parallel" : 1
    },
    {
      "axis_h" : 0,
      "axis_w" : 2,
      "bottom" : "swa_model\/Conv2D_15x",
      "axis_k" : 1,
      "axis_n" : 3,
      "axis_seq" : 4,
      "weights" : {

      },
      "debug_info" : "transpose_346",
      "top" : "transpose_346",
      "type" : "transpose",
      "name" : "transpose_346"
    },
    {
      "bottom" : "swa_model\/add_26,transpose_346",
      "alpha" : 1,
      "operation" : 0,
      "weights" : {

      },
      "fused_relu" : 0,
      "debug_info" : "swa_model\/add_30",
      "top" : "swa_model\/add_30",
      "type" : "elementwise",
      "name" : "swa_model\/add_30",
      "beta" : 0
    },
    {
      "top" : "swa_model\/rconv8\/norm1\/beta\/read\/_241__cf__241",
      "w" : 256,
      "h" : 1,
      "name" : "swa_model\/rconv8\/norm1\/beta\/read\/_241__cf__241",
      "nd_rank" : 1,
      "type" : "load_constant",
      "k" : 1,
      "bottom" : "",
      "debug_info" : "swa_model\/rconv8\/norm1\/beta\/read\/_241__cf__241",
      "n" : 1,
      "weights" : {

      },
      "constant_blob" : 99
    },
    {
      "bottom" : "swa_model\/add_30,swa_model\/rconv8\/norm1\/beta\/read\/_241__cf__241",
      "alpha" : 1,
      "operation" : 0,
      "weights" : {

      },
      "fused_relu" : 0,
      "debug_info" : "swa_model\/add_31",
      "nd_mode" : true,
      "top" : "swa_model\/add_31",
      "type" : "elementwise",
      "name" : "swa_model\/add_31",
      "beta" : 0
    },
    {
      "bottom" : "swa_model\/add_31",
      "weights" : {

      },
      "mode" : 0,
      "debug_info" : "swa_model\/Relu_15",
      "top" : "swa_model\/Relu_15",
      "type" : "activation",
      "name" : "swa_model\/Relu_15"
    },
    {
      "axis_h" : 2,
      "axis_w" : 1,
      "bottom" : "swa_model\/Relu_15",
      "axis_k" : 0,
      "axis_n" : 3,
      "axis_seq" : 4,
      "weights" : {

      },
      "debug_info" : "transpose_345",
      "top" : "transpose_345",
      "type" : "transpose",
      "name" : "transpose_345"
    },
    {
      "pad_r" : 0,
      "fused_relu" : 0,
      "fused_tanh" : 0,
      "debug_info" : "conv_7",
      "pad_fill_mode" : 0,
      "pad_b" : 0,
      "pad_l" : 0,
      "top" : "conv_7",
      "blob_weights" : 103,
      "K" : 256,
      "blob_biases" : 101,
      "name" : "conv_7",
      "has_batch_norm" : 0,
      "type" : "convolution",
      "n_groups" : 1,
      "pad_t" : 0,
      "has_biases" : 1,
      "C" : 256,
      "bottom" : "transpose_345",
      "weights" : {

      },
      "Nx" : 3,
      "pad_mode" : 1,
      "pad_value" : 0,
      "Ny" : 3,
      "n_parallel" : 1
    },
    {
      "axis_h" : 0,
      "axis_w" : 2,
      "bottom" : "conv_7",
      "axis_k" : 1,
      "axis_n" : 3,
      "axis_seq" : 4,
      "weights" : {

      },
      "debug_info" : "transpose_344",
      "top" : "transpose_344",
      "type" : "transpose",
      "name" : "transpose_344"
    },
    {
      "bottom" : "transpose_344",
      "weights" : {

      },
      "mode" : 0,
      "debug_info" : "swa_model\/Relu_16",
      "top" : "swa_model\/Relu_16",
      "type" : "activation",
      "name" : "swa_model\/Relu_16"
    },
    {
      "axis_h" : 2,
      "axis_w" : 1,
      "bottom" : "swa_model\/Relu_16",
      "axis_k" : 0,
      "axis_n" : 3,
      "axis_seq" : 4,
      "weights" : {

      },
      "debug_info" : "transpose_343",
      "top" : "transpose_343",
      "type" : "transpose",
      "name" : "transpose_343"
    },
    {
      "pad_r" : 0,
      "fused_relu" : 0,
      "fused_tanh" : 0,
      "debug_info" : "swa_model\/Conv2D_17x",
      "pad_fill_mode" : 0,
      "pad_b" : 0,
      "pad_l" : 0,
      "top" : "swa_model\/Conv2D_17x",
      "blob_weights" : 105,
      "K" : 256,
      "name" : "swa_model\/Conv2D_17x",
      "has_batch_norm" : 0,
      "type" : "convolution",
      "n_groups" : 1,
      "pad_t" : 0,
      "has_biases" : 0,
      "C" : 256,
      "bottom" : "transpose_343",
      "weights" : {

      },
      "Nx" : 3,
      "pad_mode" : 1,
      "pad_value" : 0,
      "Ny" : 3,
      "n_parallel" : 1
    },
    {
      "axis_h" : 0,
      "axis_w" : 2,
      "bottom" : "swa_model\/Conv2D_17x",
      "axis_k" : 1,
      "axis_n" : 3,
      "axis_seq" : 4,
      "weights" : {

      },
      "debug_info" : "transpose_342",
      "top" : "transpose_342",
      "type" : "transpose",
      "name" : "transpose_342"
    },
    {
      "bottom" : "swa_model\/add_30,transpose_342",
      "alpha" : 1,
      "operation" : 0,
      "weights" : {

      },
      "fused_relu" : 0,
      "debug_info" : "swa_model\/add_34",
      "top" : "swa_model\/add_34",
      "type" : "elementwise",
      "name" : "swa_model\/add_34",
      "beta" : 0
    },
    {
      "top" : "swa_model\/rconv9\/norm1\/beta\/read\/_246__cf__246",
      "w" : 256,
      "h" : 1,
      "name" : "swa_model\/rconv9\/norm1\/beta\/read\/_246__cf__246",
      "nd_rank" : 1,
      "type" : "load_constant",
      "k" : 1,
      "bottom" : "",
      "debug_info" : "swa_model\/rconv9\/norm1\/beta\/read\/_246__cf__246",
      "n" : 1,
      "weights" : {

      },
      "constant_blob" : 107
    },
    {
      "bottom" : "swa_model\/add_34,swa_model\/rconv9\/norm1\/beta\/read\/_246__cf__246",
      "alpha" : 1,
      "operation" : 0,
      "weights" : {

      },
      "fused_relu" : 0,
      "debug_info" : "swa_model\/add_35",
      "nd_mode" : true,
      "top" : "swa_model\/add_35",
      "type" : "elementwise",
      "name" : "swa_model\/add_35",
      "beta" : 0
    },
    {
      "bottom" : "swa_model\/add_35",
      "weights" : {

      },
      "mode" : 0,
      "debug_info" : "swa_model\/Relu_17",
      "top" : "swa_model\/Relu_17",
      "type" : "activation",
      "name" : "swa_model\/Relu_17"
    },
    {
      "axis_h" : 2,
      "axis_w" : 1,
      "bottom" : "swa_model\/Relu_17",
      "axis_k" : 0,
      "axis_n" : 3,
      "axis_seq" : 4,
      "weights" : {

      },
      "debug_info" : "transpose_341",
      "top" : "transpose_341",
      "type" : "transpose",
      "name" : "transpose_341"
    },
    {
      "pad_r" : 0,
      "fused_relu" : 0,
      "fused_tanh" : 0,
      "debug_info" : "conv_8",
      "pad_fill_mode" : 0,
      "pad_b" : 0,
      "pad_l" : 0,
      "top" : "conv_8",
      "blob_weights" : 111,
      "K" : 256,
      "blob_biases" : 109,
      "name" : "conv_8",
      "has_batch_norm" : 0,
      "type" : "convolution",
      "n_groups" : 1,
      "pad_t" : 0,
      "has_biases" : 1,
      "C" : 256,
      "bottom" : "transpose_341",
      "weights" : {

      },
      "Nx" : 3,
      "pad_mode" : 1,
      "pad_value" : 0,
      "Ny" : 3,
      "n_parallel" : 1
    },
    {
      "axis_h" : 0,
      "axis_w" : 2,
      "bottom" : "conv_8",
      "axis_k" : 1,
      "axis_n" : 3,
      "axis_seq" : 4,
      "weights" : {

      },
      "debug_info" : "transpose_340",
      "top" : "transpose_340",
      "type" : "transpose",
      "name" : "transpose_340"
    },
    {
      "bottom" : "transpose_340",
      "weights" : {

      },
      "mode" : 0,
      "debug_info" : "swa_model\/Relu_18",
      "top" : "swa_model\/Relu_18",
      "type" : "activation",
      "name" : "swa_model\/Relu_18"
    },
    {
      "axis_h" : 2,
      "axis_w" : 1,
      "bottom" : "swa_model\/Relu_18",
      "axis_k" : 0,
      "axis_n" : 3,
      "axis_seq" : 4,
      "weights" : {

      },
      "debug_info" : "transpose_339",
      "top" : "transpose_339",
      "type" : "transpose",
      "name" : "transpose_339"
    },
    {
      "pad_r" : 0,
      "fused_relu" : 0,
      "fused_tanh" : 0,
      "debug_info" : "swa_model\/Conv2D_19x",
      "pad_fill_mode" : 0,
      "pad_b" : 0,
      "pad_l" : 0,
      "top" : "swa_model\/Conv2D_19x",
      "blob_weights" : 113,
      "K" : 256,
      "name" : "swa_model\/Conv2D_19x",
      "has_batch_norm" : 0,
      "type" : "convolution",
      "n_groups" : 1,
      "pad_t" : 0,
      "has_biases" : 0,
      "C" : 256,
      "bottom" : "transpose_339",
      "weights" : {

      },
      "Nx" : 3,
      "pad_mode" : 1,
      "pad_value" : 0,
      "Ny" : 3,
      "n_parallel" : 1
    },
    {
      "axis_h" : 0,
      "axis_w" : 2,
      "bottom" : "swa_model\/Conv2D_19x",
      "axis_k" : 1,
      "axis_n" : 3,
      "axis_seq" : 4,
      "weights" : {

      },
      "debug_info" : "transpose_338",
      "top" : "transpose_338",
      "type" : "transpose",
      "name" : "transpose_338"
    },
    {
      "bottom" : "swa_model\/add_34,transpose_338",
      "alpha" : 1,
      "operation" : 0,
      "weights" : {

      },
      "fused_relu" : 0,
      "debug_info" : "swa_model\/add_38",
      "top" : "swa_model\/add_38",
      "type" : "elementwise",
      "name" : "swa_model\/add_38",
      "beta" : 0
    },
    {
      "top" : "swa_model\/rconv10\/norm1\/beta\/read\/_42__cf__42",
      "w" : 256,
      "h" : 1,
      "name" : "swa_model\/rconv10\/norm1\/beta\/read\/_42__cf__42",
      "nd_rank" : 1,
      "type" : "load_constant",
      "k" : 1,
      "bottom" : "",
      "debug_info" : "swa_model\/rconv10\/norm1\/beta\/read\/_42__cf__42",
      "n" : 1,
      "weights" : {

      },
      "constant_blob" : 115
    },
    {
      "bottom" : "swa_model\/add_38,swa_model\/rconv10\/norm1\/beta\/read\/_42__cf__42",
      "alpha" : 1,
      "operation" : 0,
      "weights" : {

      },
      "fused_relu" : 0,
      "debug_info" : "swa_model\/add_39",
      "nd_mode" : true,
      "top" : "swa_model\/add_39",
      "type" : "elementwise",
      "name" : "swa_model\/add_39",
      "beta" : 0
    },
    {
      "bottom" : "swa_model\/add_39",
      "weights" : {

      },
      "mode" : 0,
      "debug_info" : "swa_model\/Relu_19",
      "top" : "swa_model\/Relu_19",
      "type" : "activation",
      "name" : "swa_model\/Relu_19"
    },
    {
      "axis_h" : 2,
      "axis_w" : 1,
      "bottom" : "swa_model\/Relu_19",
      "axis_k" : 0,
      "axis_n" : 3,
      "axis_seq" : 4,
      "weights" : {

      },
      "debug_info" : "transpose_337",
      "top" : "transpose_337",
      "type" : "transpose",
      "name" : "transpose_337"
    },
    {
      "pad_r" : 0,
      "fused_relu" : 0,
      "fused_tanh" : 0,
      "debug_info" : "conv_9",
      "pad_fill_mode" : 0,
      "pad_b" : 0,
      "pad_l" : 0,
      "top" : "conv_9",
      "blob_weights" : 119,
      "K" : 256,
      "blob_biases" : 117,
      "name" : "conv_9",
      "has_batch_norm" : 0,
      "type" : "convolution",
      "n_groups" : 1,
      "pad_t" : 0,
      "has_biases" : 1,
      "C" : 256,
      "bottom" : "transpose_337",
      "weights" : {

      },
      "Nx" : 3,
      "pad_mode" : 1,
      "pad_value" : 0,
      "Ny" : 3,
      "n_parallel" : 1
    },
    {
      "axis_h" : 0,
      "axis_w" : 2,
      "bottom" : "conv_9",
      "axis_k" : 1,
      "axis_n" : 3,
      "axis_seq" : 4,
      "weights" : {

      },
      "debug_info" : "transpose_336",
      "top" : "transpose_336",
      "type" : "transpose",
      "name" : "transpose_336"
    },
    {
      "bottom" : "transpose_336",
      "weights" : {

      },
      "mode" : 0,
      "debug_info" : "swa_model\/Relu_20",
      "top" : "swa_model\/Relu_20",
      "type" : "activation",
      "name" : "swa_model\/Relu_20"
    },
    {
      "axis_h" : 2,
      "axis_w" : 1,
      "bottom" : "swa_model\/Relu_20",
      "axis_k" : 0,
      "axis_n" : 3,
      "axis_seq" : 4,
      "weights" : {

      },
      "debug_info" : "transpose_335",
      "top" : "transpose_335",
      "type" : "transpose",
      "name" : "transpose_335"
    },
    {
      "pad_r" : 0,
      "fused_relu" : 0,
      "fused_tanh" : 0,
      "debug_info" : "swa_model\/Conv2D_21x",
      "pad_fill_mode" : 0,
      "pad_b" : 0,
      "pad_l" : 0,
      "top" : "swa_model\/Conv2D_21x",
      "blob_weights" : 121,
      "K" : 256,
      "name" : "swa_model\/Conv2D_21x",
      "has_batch_norm" : 0,
      "type" : "convolution",
      "n_groups" : 1,
      "pad_t" : 0,
      "has_biases" : 0,
      "C" : 256,
      "bottom" : "transpose_335",
      "weights" : {

      },
      "Nx" : 3,
      "pad_mode" : 1,
      "pad_value" : 0,
      "Ny" : 3,
      "n_parallel" : 1
    },
    {
      "axis_h" : 0,
      "axis_w" : 2,
      "bottom" : "swa_model\/Conv2D_21x",
      "axis_k" : 1,
      "axis_n" : 3,
      "axis_seq" : 4,
      "weights" : {

      },
      "debug_info" : "transpose_334",
      "top" : "transpose_334",
      "type" : "transpose",
      "name" : "transpose_334"
    },
    {
      "bottom" : "swa_model\/add_38,transpose_334",
      "alpha" : 1,
      "operation" : 0,
      "weights" : {

      },
      "fused_relu" : 0,
      "debug_info" : "swa_model\/add_42",
      "top" : "swa_model\/add_42",
      "type" : "elementwise",
      "name" : "swa_model\/add_42",
      "beta" : 0
    },
    {
      "top" : "swa_model\/rconv11\/norm1\/beta\/read\/_47__cf__47",
      "w" : 256,
      "h" : 1,
      "name" : "swa_model\/rconv11\/norm1\/beta\/read\/_47__cf__47",
      "nd_rank" : 1,
      "type" : "load_constant",
      "k" : 1,
      "bottom" : "",
      "debug_info" : "swa_model\/rconv11\/norm1\/beta\/read\/_47__cf__47",
      "n" : 1,
      "weights" : {

      },
      "constant_blob" : 123
    },
    {
      "bottom" : "swa_model\/add_42,swa_model\/rconv11\/norm1\/beta\/read\/_47__cf__47",
      "alpha" : 1,
      "operation" : 0,
      "weights" : {

      },
      "fused_relu" : 0,
      "debug_info" : "swa_model\/add_43",
      "nd_mode" : true,
      "top" : "swa_model\/add_43",
      "type" : "elementwise",
      "name" : "swa_model\/add_43",
      "beta" : 0
    },
    {
      "bottom" : "swa_model\/add_43",
      "weights" : {

      },
      "mode" : 0,
      "debug_info" : "swa_model\/Relu_21",
      "top" : "swa_model\/Relu_21",
      "type" : "activation",
      "name" : "swa_model\/Relu_21"
    },
    {
      "axis_h" : 2,
      "axis_w" : 1,
      "bottom" : "swa_model\/Relu_21",
      "axis_k" : 0,
      "axis_n" : 3,
      "axis_seq" : 4,
      "weights" : {

      },
      "debug_info" : "transpose_333",
      "top" : "transpose_333",
      "type" : "transpose",
      "name" : "transpose_333"
    },
    {
      "pad_r" : 0,
      "fused_relu" : 0,
      "fused_tanh" : 0,
      "debug_info" : "conv_10",
      "pad_fill_mode" : 0,
      "pad_b" : 0,
      "pad_l" : 0,
      "top" : "conv_10",
      "blob_weights" : 127,
      "K" : 256,
      "blob_biases" : 125,
      "name" : "conv_10",
      "has_batch_norm" : 0,
      "type" : "convolution",
      "n_groups" : 1,
      "pad_t" : 0,
      "has_biases" : 1,
      "C" : 64,
      "bottom" : "transpose_333",
      "weights" : {

      },
      "Nx" : 3,
      "pad_mode" : 1,
      "pad_value" : 0,
      "Ny" : 3,
      "n_parallel" : 1
    },
    {
      "axis_h" : 2,
      "axis_w" : 1,
      "bottom" : "swa_model\/Relu_21",
      "axis_k" : 0,
      "axis_n" : 3,
      "axis_seq" : 4,
      "weights" : {

      },
      "debug_info" : "transpose_331",
      "top" : "transpose_331",
      "type" : "transpose",
      "name" : "transpose_331"
    },
    {
      "pad_r" : 0,
      "fused_relu" : 0,
      "fused_tanh" : 0,
      "debug_info" : "swa_model\/Conv2D_22x",
      "pad_fill_mode" : 0,
      "pad_b" : 0,
      "pad_l" : 0,
      "top" : "swa_model\/Conv2D_22x",
      "blob_weights" : 129,
      "K" : 256,
      "name" : "swa_model\/Conv2D_22x",
      "has_batch_norm" : 0,
      "type" : "convolution",
      "n_groups" : 1,
      "pad_t" : 0,
      "has_biases" : 0,
      "C" : 192,
      "bottom" : "transpose_331",
      "weights" : {

      },
      "Nx" : 3,
      "pad_mode" : 1,
      "pad_value" : 0,
      "Ny" : 3,
      "n_parallel" : 1
    },
    {
      "axis_h" : 0,
      "axis_w" : 2,
      "bottom" : "swa_model\/Conv2D_22x",
      "axis_k" : 1,
      "axis_n" : 3,
      "axis_seq" : 4,
      "weights" : {

      },
      "debug_info" : "transpose_330",
      "top" : "transpose_330",
      "type" : "transpose",
      "name" : "transpose_330"
    },
    {
      "top" : "swa_model\/rconv11\/norm2\/gamma\/read\/_50__cf__50",
      "w" : 192,
      "h" : 1,
      "name" : "swa_model\/rconv11\/norm2\/gamma\/read\/_50__cf__50",
      "nd_rank" : 1,
      "type" : "load_constant",
      "k" : 1,
      "bottom" : "",
      "debug_info" : "swa_model\/rconv11\/norm2\/gamma\/read\/_50__cf__50",
      "n" : 1,
      "weights" : {

      },
      "constant_blob" : 131
    },
    {
      "bottom" : "transpose_330,swa_model\/rconv11\/norm2\/gamma\/read\/_50__cf__50",
      "alpha" : 1,
      "operation" : 1,
      "weights" : {

      },
      "fused_relu" : 0,
      "debug_info" : "swa_model\/mul_40",
      "nd_mode" : true,
      "top" : "swa_model\/mul_40",
      "type" : "elementwise",
      "name" : "swa_model\/mul_40",
      "beta" : 0
    },
    {
      "axis_h" : 0,
      "axis_w" : 2,
      "bottom" : "conv_10",
      "axis_k" : 1,
      "axis_n" : 3,
      "axis_seq" : 4,
      "weights" : {

      },
      "debug_info" : "transpose_332",
      "top" : "transpose_332",
      "type" : "transpose",
      "name" : "transpose_332"
    },
    {
      "bottom" : "transpose_332",
      "weights" : {

      },
      "mode" : 0,
      "debug_info" : "swa_model\/Relu_22",
      "top" : "swa_model\/Relu_22",
      "type" : "activation",
      "name" : "swa_model\/Relu_22"
    },
    {
      "top" : "swa_model\/rconv11\/norm2\/beta\/read\/_49__cf__49",
      "w" : 192,
      "h" : 1,
      "name" : "swa_model\/rconv11\/norm2\/beta\/read\/_49__cf__49",
      "nd_rank" : 1,
      "type" : "load_constant",
      "k" : 1,
      "bottom" : "",
      "debug_info" : "swa_model\/rconv11\/norm2\/beta\/read\/_49__cf__49",
      "n" : 1,
      "weights" : {

      },
      "constant_blob" : 133
    },
    {
      "bottom" : "swa_model\/mul_40,swa_model\/rconv11\/norm2\/beta\/read\/_49__cf__49",
      "alpha" : 1,
      "operation" : 0,
      "weights" : {

      },
      "fused_relu" : 0,
      "debug_info" : "swa_model\/add_46",
      "nd_mode" : true,
      "top" : "swa_model\/add_46",
      "type" : "elementwise",
      "name" : "swa_model\/add_46",
      "beta" : 0
    },
    {
      "axis_mode" : 4,
      "bottom" : "swa_model\/Relu_22",
      "weights" : {

      },
      "mode" : 1,
      "nd_axis" : 1,
      "nd_mode" : true,
      "debug_info" : "swa_model\/Mean_1",
      "use_version" : 1,
      "top" : "swa_model\/Relu_22__reduction_axis__1",
      "type" : "reduce",
      "name" : "swa_model\/Mean_1__reduction_axis__0"
    },
    {
      "axis_mode" : 2,
      "bottom" : "swa_model\/Relu_22__reduction_axis__1",
      "weights" : {

      },
      "mode" : 1,
      "nd_axis" : 2,
      "nd_mode" : true,
      "debug_info" : "swa_model\/Mean_1",
      "use_version" : 1,
      "top" : "swa_model\/Mean_1",
      "type" : "reduce",
      "name" : "swa_model\/Mean_1"
    },
    {
      "axis_mode" : 4,
      "bottom" : "swa_model\/Relu_22",
      "weights" : {

      },
      "mode" : 9,
      "nd_axis" : 1,
      "nd_mode" : true,
      "debug_info" : "swa_model\/Max_1",
      "use_version" : 1,
      "top" : "swa_model\/Relu_22__reduction_axis__1_@ssa_version_1",
      "type" : "reduce",
      "name" : "swa_model\/Max_1__reduction_axis__0"
    },
    {
      "axis_mode" : 2,
      "bottom" : "swa_model\/Relu_22__reduction_axis__1_@ssa_version_1",
      "weights" : {

      },
      "mode" : 9,
      "nd_axis" : 2,
      "nd_mode" : true,
      "debug_info" : "swa_model\/Max_1",
      "use_version" : 1,
      "top" : "swa_model\/Max_1",
      "type" : "reduce",
      "name" : "swa_model\/Max_1"
    },
    {
      "bottom" : "swa_model\/Mean_1,_inversed_swa_model\/truediv_1",
      "alpha" : 1,
      "operation" : 1,
      "weights" : {

      },
      "fused_relu" : 0,
      "debug_info" : "swa_model\/mul_38",
      "nd_mode" : true,
      "top" : "swa_model\/mul_38",
      "type" : "elementwise",
      "name" : "swa_model\/mul_38",
      "beta" : 0
    },
    {
      "bottom" : "swa_model\/Mean_1,swa_model\/mul_38,swa_model\/Max_1",
      "weights" : {

      },
      "nd_mode" : true,
      "axis" : 3,
      "debug_info" : "swa_model\/concat_1",
      "top" : "swa_model\/concat_1",
      "type" : "general_concat",
      "name" : "swa_model\/concat_1"
    },
    {
      "name" : "swa_model\/Tensordot_2\/Reshape",
      "weights" : {

      },
      "dst_w" : 192,
      "version" : 1,
      "dst_n" : 1,
      "dst_nd_rank" : 2,
      "type" : "reshape",
      "dst_h" : -1,
      "mode" : 0,
      "dynamic_shape" : false,
      "bottom" : "swa_model\/concat_1",
      "debug_info" : "swa_model\/Tensordot_2\/Reshape",
      "dst_seq" : 1,
      "dst_k" : 1,
      "top" : "swa_model\/Tensordot_2\/Reshape"
    },
    {
      "nB" : 192,
      "top" : "swa_model\/Tensordot_2\/MatMul",
      "has_biases" : 0,
      "weights" : {

      },
      "nC" : 192,
      "blob_weights" : 135,
      "type" : "inner_product",
      "has_relu" : 0,
      "bottom" : "swa_model\/Tensordot_2\/Reshape",
      "debug_info" : "swa_model\/Tensordot_2\/MatMul",
      "has_tanh" : 0,
      "nd_mode" : true,
      "name" : "swa_model\/Tensordot_2\/MatMul",
      "has_prelu" : 0
    },
    {
      "name" : "swa_model\/Tensordot_2",
      "weights" : {

      },
      "dst_w" : 192,
      "version" : 1,
      "dst_n" : -1,
      "dst_nd_rank" : 4,
      "type" : "reshape",
      "dst_h" : 1,
      "mode" : 0,
      "dynamic_shape" : false,
      "bottom" : "swa_model\/Tensordot_2\/MatMul",
      "debug_info" : "swa_model\/Tensordot_2",
      "dst_seq" : 1,
      "dst_k" : 1,
      "top" : "swa_model\/Tensordot_2"
    },
    {
      "bottom" : "swa_model\/Tensordot_2,swa_model\/rconv11\/norm2\/gamma\/read\/_50__cf__50",
      "alpha" : 1,
      "operation" : 1,
      "weights" : {

      },
      "fused_relu" : 0,
      "debug_info" : "swa_model\/mul_41",
      "top" : "swa_model\/mul_41",
      "type" : "elementwise",
      "name" : "swa_model\/mul_41",
      "beta" : 0
    },
    {
      "bottom" : "swa_model\/add_46,swa_model\/mul_41",
      "alpha" : 1,
      "operation" : 0,
      "weights" : {

      },
      "fused_relu" : 0,
      "debug_info" : "swa_model\/add_47",
      "nd_mode" : true,
      "top" : "swa_model\/add_47",
      "type" : "elementwise",
      "name" : "swa_model\/add_47",
      "beta" : 0
    },
    {
      "bottom" : "swa_model\/add_47",
      "weights" : {

      },
      "mode" : 0,
      "debug_info" : "swa_model\/Relu_23",
      "top" : "swa_model\/Relu_23",
      "type" : "activation",
      "name" : "swa_model\/Relu_23"
    },
    {
      "axis_h" : 2,
      "axis_w" : 1,
      "bottom" : "swa_model\/Relu_23",
      "axis_k" : 0,
      "axis_n" : 3,
      "axis_seq" : 4,
      "weights" : {

      },
      "debug_info" : "transpose_329",
      "top" : "transpose_329",
      "type" : "transpose",
      "name" : "transpose_329"
    },
    {
      "pad_r" : 0,
      "fused_relu" : 0,
      "fused_tanh" : 0,
      "debug_info" : "swa_model\/Conv2D_24x",
      "pad_fill_mode" : 0,
      "pad_b" : 0,
      "pad_l" : 0,
      "top" : "swa_model\/Conv2D_24x",
      "blob_weights" : 137,
      "K" : 192,
      "name" : "swa_model\/Conv2D_24x",
      "has_batch_norm" : 0,
      "type" : "convolution",
      "n_groups" : 1,
      "pad_t" : 0,
      "has_biases" : 0,
      "C" : 256,
      "bottom" : "transpose_329",
      "weights" : {

      },
      "Nx" : 3,
      "pad_mode" : 1,
      "pad_value" : 0,
      "Ny" : 3,
      "n_parallel" : 1
    },
    {
      "axis_h" : 0,
      "axis_w" : 2,
      "bottom" : "swa_model\/Conv2D_24x",
      "axis_k" : 1,
      "axis_n" : 3,
      "axis_seq" : 4,
      "weights" : {

      },
      "debug_info" : "transpose_328",
      "top" : "transpose_328",
      "type" : "transpose",
      "name" : "transpose_328"
    },
    {
      "bottom" : "swa_model\/add_42,transpose_328",
      "alpha" : 1,
      "operation" : 0,
      "weights" : {

      },
      "fused_relu" : 0,
      "debug_info" : "swa_model\/add_48",
      "nd_mode" : true,
      "top" : "swa_model\/add_48",
      "type" : "elementwise",
      "name" : "swa_model\/add_48",
      "beta" : 0
    },
    {
      "top" : "swa_model\/rconv12\/norm1\/beta\/read\/_54__cf__54",
      "w" : 256,
      "h" : 1,
      "name" : "swa_model\/rconv12\/norm1\/beta\/read\/_54__cf__54",
      "nd_rank" : 1,
      "type" : "load_constant",
      "k" : 1,
      "bottom" : "",
      "debug_info" : "swa_model\/rconv12\/norm1\/beta\/read\/_54__cf__54",
      "n" : 1,
      "weights" : {

      },
      "constant_blob" : 139
    },
    {
      "bottom" : "swa_model\/add_48,swa_model\/rconv12\/norm1\/beta\/read\/_54__cf__54",
      "alpha" : 1,
      "operation" : 0,
      "weights" : {

      },
      "fused_relu" : 0,
      "debug_info" : "swa_model\/add_49",
      "nd_mode" : true,
      "top" : "swa_model\/add_49",
      "type" : "elementwise",
      "name" : "swa_model\/add_49",
      "beta" : 0
    },
    {
      "bottom" : "swa_model\/add_49",
      "weights" : {

      },
      "mode" : 0,
      "debug_info" : "swa_model\/Relu_24",
      "top" : "swa_model\/Relu_24",
      "type" : "activation",
      "name" : "swa_model\/Relu_24"
    },
    {
      "axis_h" : 2,
      "axis_w" : 1,
      "bottom" : "swa_model\/Relu_24",
      "axis_k" : 0,
      "axis_n" : 3,
      "axis_seq" : 4,
      "weights" : {

      },
      "debug_info" : "transpose_327",
      "top" : "transpose_327",
      "type" : "transpose",
      "name" : "transpose_327"
    },
    {
      "pad_r" : 0,
      "fused_relu" : 0,
      "fused_tanh" : 0,
      "debug_info" : "conv_11",
      "pad_fill_mode" : 0,
      "pad_b" : 0,
      "pad_l" : 0,
      "top" : "conv_11",
      "blob_weights" : 143,
      "K" : 256,
      "blob_biases" : 141,
      "name" : "conv_11",
      "has_batch_norm" : 0,
      "type" : "convolution",
      "n_groups" : 1,
      "pad_t" : 0,
      "has_biases" : 1,
      "C" : 256,
      "bottom" : "transpose_327",
      "weights" : {

      },
      "Nx" : 3,
      "pad_mode" : 1,
      "pad_value" : 0,
      "Ny" : 3,
      "n_parallel" : 1
    },
    {
      "axis_h" : 0,
      "axis_w" : 2,
      "bottom" : "conv_11",
      "axis_k" : 1,
      "axis_n" : 3,
      "axis_seq" : 4,
      "weights" : {

      },
      "debug_info" : "transpose_326",
      "top" : "transpose_326",
      "type" : "transpose",
      "name" : "transpose_326"
    },
    {
      "bottom" : "transpose_326",
      "weights" : {

      },
      "mode" : 0,
      "debug_info" : "swa_model\/Relu_25",
      "top" : "swa_model\/Relu_25",
      "type" : "activation",
      "name" : "swa_model\/Relu_25"
    },
    {
      "axis_h" : 2,
      "axis_w" : 1,
      "bottom" : "swa_model\/Relu_25",
      "axis_k" : 0,
      "axis_n" : 3,
      "axis_seq" : 4,
      "weights" : {

      },
      "debug_info" : "transpose_325",
      "top" : "transpose_325",
      "type" : "transpose",
      "name" : "transpose_325"
    },
    {
      "pad_r" : 0,
      "fused_relu" : 0,
      "fused_tanh" : 0,
      "debug_info" : "swa_model\/Conv2D_26x",
      "pad_fill_mode" : 0,
      "pad_b" : 0,
      "pad_l" : 0,
      "top" : "swa_model\/Conv2D_26x",
      "blob_weights" : 145,
      "K" : 256,
      "name" : "swa_model\/Conv2D_26x",
      "has_batch_norm" : 0,
      "type" : "convolution",
      "n_groups" : 1,
      "pad_t" : 0,
      "has_biases" : 0,
      "C" : 256,
      "bottom" : "transpose_325",
      "weights" : {

      },
      "Nx" : 3,
      "pad_mode" : 1,
      "pad_value" : 0,
      "Ny" : 3,
      "n_parallel" : 1
    },
    {
      "axis_h" : 0,
      "axis_w" : 2,
      "bottom" : "swa_model\/Conv2D_26x",
      "axis_k" : 1,
      "axis_n" : 3,
      "axis_seq" : 4,
      "weights" : {

      },
      "debug_info" : "transpose_324",
      "top" : "transpose_324",
      "type" : "transpose",
      "name" : "transpose_324"
    },
    {
      "bottom" : "swa_model\/add_48,transpose_324",
      "alpha" : 1,
      "operation" : 0,
      "weights" : {

      },
      "fused_relu" : 0,
      "debug_info" : "swa_model\/add_52",
      "top" : "swa_model\/add_52",
      "type" : "elementwise",
      "name" : "swa_model\/add_52",
      "beta" : 0
    },
    {
      "top" : "swa_model\/rconv13\/norm1\/beta\/read\/_59__cf__59",
      "w" : 256,
      "h" : 1,
      "name" : "swa_model\/rconv13\/norm1\/beta\/read\/_59__cf__59",
      "nd_rank" : 1,
      "type" : "load_constant",
      "k" : 1,
      "bottom" : "",
      "debug_info" : "swa_model\/rconv13\/norm1\/beta\/read\/_59__cf__59",
      "n" : 1,
      "weights" : {

      },
      "constant_blob" : 147
    },
    {
      "bottom" : "swa_model\/add_52,swa_model\/rconv13\/norm1\/beta\/read\/_59__cf__59",
      "alpha" : 1,
      "operation" : 0,
      "weights" : {

      },
      "fused_relu" : 0,
      "debug_info" : "swa_model\/add_53",
      "nd_mode" : true,
      "top" : "swa_model\/add_53",
      "type" : "elementwise",
      "name" : "swa_model\/add_53",
      "beta" : 0
    },
    {
      "bottom" : "swa_model\/add_53",
      "weights" : {

      },
      "mode" : 0,
      "debug_info" : "swa_model\/Relu_26",
      "top" : "swa_model\/Relu_26",
      "type" : "activation",
      "name" : "swa_model\/Relu_26"
    },
    {
      "axis_h" : 2,
      "axis_w" : 1,
      "bottom" : "swa_model\/Relu_26",
      "axis_k" : 0,
      "axis_n" : 3,
      "axis_seq" : 4,
      "weights" : {

      },
      "debug_info" : "transpose_323",
      "top" : "transpose_323",
      "type" : "transpose",
      "name" : "transpose_323"
    },
    {
      "pad_r" : 0,
      "fused_relu" : 0,
      "fused_tanh" : 0,
      "debug_info" : "conv_12",
      "pad_fill_mode" : 0,
      "pad_b" : 0,
      "pad_l" : 0,
      "top" : "conv_12",
      "blob_weights" : 151,
      "K" : 256,
      "blob_biases" : 149,
      "name" : "conv_12",
      "has_batch_norm" : 0,
      "type" : "convolution",
      "n_groups" : 1,
      "pad_t" : 0,
      "has_biases" : 1,
      "C" : 256,
      "bottom" : "transpose_323",
      "weights" : {

      },
      "Nx" : 3,
      "pad_mode" : 1,
      "pad_value" : 0,
      "Ny" : 3,
      "n_parallel" : 1
    },
    {
      "axis_h" : 0,
      "axis_w" : 2,
      "bottom" : "conv_12",
      "axis_k" : 1,
      "axis_n" : 3,
      "axis_seq" : 4,
      "weights" : {

      },
      "debug_info" : "transpose_322",
      "top" : "transpose_322",
      "type" : "transpose",
      "name" : "transpose_322"
    },
    {
      "bottom" : "transpose_322",
      "weights" : {

      },
      "mode" : 0,
      "debug_info" : "swa_model\/Relu_27",
      "top" : "swa_model\/Relu_27",
      "type" : "activation",
      "name" : "swa_model\/Relu_27"
    },
    {
      "axis_h" : 2,
      "axis_w" : 1,
      "bottom" : "swa_model\/Relu_27",
      "axis_k" : 0,
      "axis_n" : 3,
      "axis_seq" : 4,
      "weights" : {

      },
      "debug_info" : "transpose_321",
      "top" : "transpose_321",
      "type" : "transpose",
      "name" : "transpose_321"
    },
    {
      "pad_r" : 0,
      "fused_relu" : 0,
      "fused_tanh" : 0,
      "debug_info" : "swa_model\/Conv2D_28x",
      "pad_fill_mode" : 0,
      "pad_b" : 0,
      "pad_l" : 0,
      "top" : "swa_model\/Conv2D_28x",
      "blob_weights" : 153,
      "K" : 256,
      "name" : "swa_model\/Conv2D_28x",
      "has_batch_norm" : 0,
      "type" : "convolution",
      "n_groups" : 1,
      "pad_t" : 0,
      "has_biases" : 0,
      "C" : 256,
      "bottom" : "transpose_321",
      "weights" : {

      },
      "Nx" : 3,
      "pad_mode" : 1,
      "pad_value" : 0,
      "Ny" : 3,
      "n_parallel" : 1
    },
    {
      "axis_h" : 0,
      "axis_w" : 2,
      "bottom" : "swa_model\/Conv2D_28x",
      "axis_k" : 1,
      "axis_n" : 3,
      "axis_seq" : 4,
      "weights" : {

      },
      "debug_info" : "transpose_320",
      "top" : "transpose_320",
      "type" : "transpose",
      "name" : "transpose_320"
    },
    {
      "bottom" : "swa_model\/add_52,transpose_320",
      "alpha" : 1,
      "operation" : 0,
      "weights" : {

      },
      "fused_relu" : 0,
      "debug_info" : "swa_model\/add_56",
      "top" : "swa_model\/add_56",
      "type" : "elementwise",
      "name" : "swa_model\/add_56",
      "beta" : 0
    },
    {
      "top" : "swa_model\/rconv14\/norm1\/beta\/read\/_64__cf__64",
      "w" : 256,
      "h" : 1,
      "name" : "swa_model\/rconv14\/norm1\/beta\/read\/_64__cf__64",
      "nd_rank" : 1,
      "type" : "load_constant",
      "k" : 1,
      "bottom" : "",
      "debug_info" : "swa_model\/rconv14\/norm1\/beta\/read\/_64__cf__64",
      "n" : 1,
      "weights" : {

      },
      "constant_blob" : 155
    },
    {
      "bottom" : "swa_model\/add_56,swa_model\/rconv14\/norm1\/beta\/read\/_64__cf__64",
      "alpha" : 1,
      "operation" : 0,
      "weights" : {

      },
      "fused_relu" : 0,
      "debug_info" : "swa_model\/add_57",
      "nd_mode" : true,
      "top" : "swa_model\/add_57",
      "type" : "elementwise",
      "name" : "swa_model\/add_57",
      "beta" : 0
    },
    {
      "bottom" : "swa_model\/add_57",
      "weights" : {

      },
      "mode" : 0,
      "debug_info" : "swa_model\/Relu_28",
      "top" : "swa_model\/Relu_28",
      "type" : "activation",
      "name" : "swa_model\/Relu_28"
    },
    {
      "axis_h" : 2,
      "axis_w" : 1,
      "bottom" : "swa_model\/Relu_28",
      "axis_k" : 0,
      "axis_n" : 3,
      "axis_seq" : 4,
      "weights" : {

      },
      "debug_info" : "transpose_319",
      "top" : "transpose_319",
      "type" : "transpose",
      "name" : "transpose_319"
    },
    {
      "pad_r" : 0,
      "fused_relu" : 0,
      "fused_tanh" : 0,
      "debug_info" : "conv_13",
      "pad_fill_mode" : 0,
      "pad_b" : 0,
      "pad_l" : 0,
      "top" : "conv_13",
      "blob_weights" : 159,
      "K" : 256,
      "blob_biases" : 157,
      "name" : "conv_13",
      "has_batch_norm" : 0,
      "type" : "convolution",
      "n_groups" : 1,
      "pad_t" : 0,
      "has_biases" : 1,
      "C" : 256,
      "bottom" : "transpose_319",
      "weights" : {

      },
      "Nx" : 3,
      "pad_mode" : 1,
      "pad_value" : 0,
      "Ny" : 3,
      "n_parallel" : 1
    },
    {
      "axis_h" : 0,
      "axis_w" : 2,
      "bottom" : "conv_13",
      "axis_k" : 1,
      "axis_n" : 3,
      "axis_seq" : 4,
      "weights" : {

      },
      "debug_info" : "transpose_318",
      "top" : "transpose_318",
      "type" : "transpose",
      "name" : "transpose_318"
    },
    {
      "bottom" : "transpose_318",
      "weights" : {

      },
      "mode" : 0,
      "debug_info" : "swa_model\/Relu_29",
      "top" : "swa_model\/Relu_29",
      "type" : "activation",
      "name" : "swa_model\/Relu_29"
    },
    {
      "axis_h" : 2,
      "axis_w" : 1,
      "bottom" : "swa_model\/Relu_29",
      "axis_k" : 0,
      "axis_n" : 3,
      "axis_seq" : 4,
      "weights" : {

      },
      "debug_info" : "transpose_317",
      "top" : "transpose_317",
      "type" : "transpose",
      "name" : "transpose_317"
    },
    {
      "pad_r" : 0,
      "fused_relu" : 0,
      "fused_tanh" : 0,
      "debug_info" : "swa_model\/Conv2D_30x",
      "pad_fill_mode" : 0,
      "pad_b" : 0,
      "pad_l" : 0,
      "top" : "swa_model\/Conv2D_30x",
      "blob_weights" : 161,
      "K" : 256,
      "name" : "swa_model\/Conv2D_30x",
      "has_batch_norm" : 0,
      "type" : "convolution",
      "n_groups" : 1,
      "pad_t" : 0,
      "has_biases" : 0,
      "C" : 256,
      "bottom" : "transpose_317",
      "weights" : {

      },
      "Nx" : 3,
      "pad_mode" : 1,
      "pad_value" : 0,
      "Ny" : 3,
      "n_parallel" : 1
    },
    {
      "axis_h" : 0,
      "axis_w" : 2,
      "bottom" : "swa_model\/Conv2D_30x",
      "axis_k" : 1,
      "axis_n" : 3,
      "axis_seq" : 4,
      "weights" : {

      },
      "debug_info" : "transpose_316",
      "top" : "transpose_316",
      "type" : "transpose",
      "name" : "transpose_316"
    },
    {
      "bottom" : "swa_model\/add_56,transpose_316",
      "alpha" : 1,
      "operation" : 0,
      "weights" : {

      },
      "fused_relu" : 0,
      "debug_info" : "swa_model\/add_60",
      "top" : "swa_model\/add_60",
      "type" : "elementwise",
      "name" : "swa_model\/add_60",
      "beta" : 0
    },
    {
      "top" : "swa_model\/rconv15\/norm1\/beta\/read\/_69__cf__69",
      "w" : 256,
      "h" : 1,
      "name" : "swa_model\/rconv15\/norm1\/beta\/read\/_69__cf__69",
      "nd_rank" : 1,
      "type" : "load_constant",
      "k" : 1,
      "bottom" : "",
      "debug_info" : "swa_model\/rconv15\/norm1\/beta\/read\/_69__cf__69",
      "n" : 1,
      "weights" : {

      },
      "constant_blob" : 163
    },
    {
      "bottom" : "swa_model\/add_60,swa_model\/rconv15\/norm1\/beta\/read\/_69__cf__69",
      "alpha" : 1,
      "operation" : 0,
      "weights" : {

      },
      "fused_relu" : 0,
      "debug_info" : "swa_model\/add_61",
      "nd_mode" : true,
      "top" : "swa_model\/add_61",
      "type" : "elementwise",
      "name" : "swa_model\/add_61",
      "beta" : 0
    },
    {
      "bottom" : "swa_model\/add_61",
      "weights" : {

      },
      "mode" : 0,
      "debug_info" : "swa_model\/Relu_30",
      "top" : "swa_model\/Relu_30",
      "type" : "activation",
      "name" : "swa_model\/Relu_30"
    },
    {
      "axis_h" : 2,
      "axis_w" : 1,
      "bottom" : "swa_model\/Relu_30",
      "axis_k" : 0,
      "axis_n" : 3,
      "axis_seq" : 4,
      "weights" : {

      },
      "debug_info" : "transpose_315",
      "top" : "transpose_315",
      "type" : "transpose",
      "name" : "transpose_315"
    },
    {
      "pad_r" : 0,
      "fused_relu" : 0,
      "fused_tanh" : 0,
      "debug_info" : "conv_14",
      "pad_fill_mode" : 0,
      "pad_b" : 0,
      "pad_l" : 0,
      "top" : "conv_14",
      "blob_weights" : 167,
      "K" : 256,
      "blob_biases" : 165,
      "name" : "conv_14",
      "has_batch_norm" : 0,
      "type" : "convolution",
      "n_groups" : 1,
      "pad_t" : 0,
      "has_biases" : 1,
      "C" : 256,
      "bottom" : "transpose_315",
      "weights" : {

      },
      "Nx" : 3,
      "pad_mode" : 1,
      "pad_value" : 0,
      "Ny" : 3,
      "n_parallel" : 1
    },
    {
      "axis_h" : 0,
      "axis_w" : 2,
      "bottom" : "conv_14",
      "axis_k" : 1,
      "axis_n" : 3,
      "axis_seq" : 4,
      "weights" : {

      },
      "debug_info" : "transpose_314",
      "top" : "transpose_314",
      "type" : "transpose",
      "name" : "transpose_314"
    },
    {
      "bottom" : "transpose_314",
      "weights" : {

      },
      "mode" : 0,
      "debug_info" : "swa_model\/Relu_31",
      "top" : "swa_model\/Relu_31",
      "type" : "activation",
      "name" : "swa_model\/Relu_31"
    },
    {
      "axis_h" : 2,
      "axis_w" : 1,
      "bottom" : "swa_model\/Relu_31",
      "axis_k" : 0,
      "axis_n" : 3,
      "axis_seq" : 4,
      "weights" : {

      },
      "debug_info" : "transpose_313",
      "top" : "transpose_313",
      "type" : "transpose",
      "name" : "transpose_313"
    },
    {
      "pad_r" : 0,
      "fused_relu" : 0,
      "fused_tanh" : 0,
      "debug_info" : "swa_model\/Conv2D_32x",
      "pad_fill_mode" : 0,
      "pad_b" : 0,
      "pad_l" : 0,
      "top" : "swa_model\/Conv2D_32x",
      "blob_weights" : 169,
      "K" : 256,
      "name" : "swa_model\/Conv2D_32x",
      "has_batch_norm" : 0,
      "type" : "convolution",
      "n_groups" : 1,
      "pad_t" : 0,
      "has_biases" : 0,
      "C" : 256,
      "bottom" : "transpose_313",
      "weights" : {

      },
      "Nx" : 3,
      "pad_mode" : 1,
      "pad_value" : 0,
      "Ny" : 3,
      "n_parallel" : 1
    },
    {
      "axis_h" : 0,
      "axis_w" : 2,
      "bottom" : "swa_model\/Conv2D_32x",
      "axis_k" : 1,
      "axis_n" : 3,
      "axis_seq" : 4,
      "weights" : {

      },
      "debug_info" : "transpose_312",
      "top" : "transpose_312",
      "type" : "transpose",
      "name" : "transpose_312"
    },
    {
      "bottom" : "swa_model\/add_60,transpose_312",
      "alpha" : 1,
      "operation" : 0,
      "weights" : {

      },
      "fused_relu" : 0,
      "debug_info" : "swa_model\/add_64",
      "top" : "swa_model\/add_64",
      "type" : "elementwise",
      "name" : "swa_model\/add_64",
      "beta" : 0
    },
    {
      "top" : "swa_model\/rconv16\/norm1\/beta\/read\/_74__cf__74",
      "w" : 256,
      "h" : 1,
      "name" : "swa_model\/rconv16\/norm1\/beta\/read\/_74__cf__74",
      "nd_rank" : 1,
      "type" : "load_constant",
      "k" : 1,
      "bottom" : "",
      "debug_info" : "swa_model\/rconv16\/norm1\/beta\/read\/_74__cf__74",
      "n" : 1,
      "weights" : {

      },
      "constant_blob" : 171
    },
    {
      "bottom" : "swa_model\/add_64,swa_model\/rconv16\/norm1\/beta\/read\/_74__cf__74",
      "alpha" : 1,
      "operation" : 0,
      "weights" : {

      },
      "fused_relu" : 0,
      "debug_info" : "swa_model\/add_65",
      "nd_mode" : true,
      "top" : "swa_model\/add_65",
      "type" : "elementwise",
      "name" : "swa_model\/add_65",
      "beta" : 0
    },
    {
      "bottom" : "swa_model\/add_65",
      "weights" : {

      },
      "mode" : 0,
      "debug_info" : "swa_model\/Relu_32",
      "top" : "swa_model\/Relu_32",
      "type" : "activation",
      "name" : "swa_model\/Relu_32"
    },
    {
      "axis_h" : 2,
      "axis_w" : 1,
      "bottom" : "swa_model\/Relu_32",
      "axis_k" : 0,
      "axis_n" : 3,
      "axis_seq" : 4,
      "weights" : {

      },
      "debug_info" : "transpose_311",
      "top" : "transpose_311",
      "type" : "transpose",
      "name" : "transpose_311"
    },
    {
      "pad_r" : 0,
      "fused_relu" : 0,
      "fused_tanh" : 0,
      "debug_info" : "conv_15",
      "pad_fill_mode" : 0,
      "pad_b" : 0,
      "pad_l" : 0,
      "top" : "conv_15",
      "blob_weights" : 175,
      "K" : 256,
      "blob_biases" : 173,
      "name" : "conv_15",
      "has_batch_norm" : 0,
      "type" : "convolution",
      "n_groups" : 1,
      "pad_t" : 0,
      "has_biases" : 1,
      "C" : 64,
      "bottom" : "transpose_311",
      "weights" : {

      },
      "Nx" : 3,
      "pad_mode" : 1,
      "pad_value" : 0,
      "Ny" : 3,
      "n_parallel" : 1
    },
    {
      "axis_h" : 2,
      "axis_w" : 1,
      "bottom" : "swa_model\/Relu_32",
      "axis_k" : 0,
      "axis_n" : 3,
      "axis_seq" : 4,
      "weights" : {

      },
      "debug_info" : "transpose_309",
      "top" : "transpose_309",
      "type" : "transpose",
      "name" : "transpose_309"
    },
    {
      "pad_r" : 0,
      "fused_relu" : 0,
      "fused_tanh" : 0,
      "debug_info" : "swa_model\/Conv2D_33x",
      "pad_fill_mode" : 0,
      "pad_b" : 0,
      "pad_l" : 0,
      "top" : "swa_model\/Conv2D_33x",
      "blob_weights" : 177,
      "K" : 256,
      "name" : "swa_model\/Conv2D_33x",
      "has_batch_norm" : 0,
      "type" : "convolution",
      "n_groups" : 1,
      "pad_t" : 0,
      "has_biases" : 0,
      "C" : 192,
      "bottom" : "transpose_309",
      "weights" : {

      },
      "Nx" : 3,
      "pad_mode" : 1,
      "pad_value" : 0,
      "Ny" : 3,
      "n_parallel" : 1
    },
    {
      "axis_h" : 0,
      "axis_w" : 2,
      "bottom" : "swa_model\/Conv2D_33x",
      "axis_k" : 1,
      "axis_n" : 3,
      "axis_seq" : 4,
      "weights" : {

      },
      "debug_info" : "transpose_308",
      "top" : "transpose_308",
      "type" : "transpose",
      "name" : "transpose_308"
    },
    {
      "top" : "swa_model\/rconv16\/norm2\/gamma\/read\/_77__cf__77",
      "w" : 192,
      "h" : 1,
      "name" : "swa_model\/rconv16\/norm2\/gamma\/read\/_77__cf__77",
      "nd_rank" : 1,
      "type" : "load_constant",
      "k" : 1,
      "bottom" : "",
      "debug_info" : "swa_model\/rconv16\/norm2\/gamma\/read\/_77__cf__77",
      "n" : 1,
      "weights" : {

      },
      "constant_blob" : 179
    },
    {
      "bottom" : "transpose_308,swa_model\/rconv16\/norm2\/gamma\/read\/_77__cf__77",
      "alpha" : 1,
      "operation" : 1,
      "weights" : {

      },
      "fused_relu" : 0,
      "debug_info" : "swa_model\/mul_59",
      "nd_mode" : true,
      "top" : "swa_model\/mul_59",
      "type" : "elementwise",
      "name" : "swa_model\/mul_59",
      "beta" : 0
    },
    {
      "axis_h" : 0,
      "axis_w" : 2,
      "bottom" : "conv_15",
      "axis_k" : 1,
      "axis_n" : 3,
      "axis_seq" : 4,
      "weights" : {

      },
      "debug_info" : "transpose_310",
      "top" : "transpose_310",
      "type" : "transpose",
      "name" : "transpose_310"
    },
    {
      "bottom" : "transpose_310",
      "weights" : {

      },
      "mode" : 0,
      "debug_info" : "swa_model\/Relu_33",
      "top" : "swa_model\/Relu_33",
      "type" : "activation",
      "name" : "swa_model\/Relu_33"
    },
    {
      "top" : "swa_model\/rconv16\/norm2\/beta\/read\/_76__cf__76",
      "w" : 192,
      "h" : 1,
      "name" : "swa_model\/rconv16\/norm2\/beta\/read\/_76__cf__76",
      "nd_rank" : 1,
      "type" : "load_constant",
      "k" : 1,
      "bottom" : "",
      "debug_info" : "swa_model\/rconv16\/norm2\/beta\/read\/_76__cf__76",
      "n" : 1,
      "weights" : {

      },
      "constant_blob" : 181
    },
    {
      "bottom" : "swa_model\/mul_59,swa_model\/rconv16\/norm2\/beta\/read\/_76__cf__76",
      "alpha" : 1,
      "operation" : 0,
      "weights" : {

      },
      "fused_relu" : 0,
      "debug_info" : "swa_model\/add_68",
      "nd_mode" : true,
      "top" : "swa_model\/add_68",
      "type" : "elementwise",
      "name" : "swa_model\/add_68",
      "beta" : 0
    },
    {
      "axis_mode" : 4,
      "bottom" : "swa_model\/Relu_33",
      "weights" : {

      },
      "mode" : 1,
      "nd_axis" : 1,
      "nd_mode" : true,
      "debug_info" : "swa_model\/Mean_2",
      "use_version" : 1,
      "top" : "swa_model\/Relu_33__reduction_axis__1",
      "type" : "reduce",
      "name" : "swa_model\/Mean_2__reduction_axis__0"
    },
    {
      "axis_mode" : 2,
      "bottom" : "swa_model\/Relu_33__reduction_axis__1",
      "weights" : {

      },
      "mode" : 1,
      "nd_axis" : 2,
      "nd_mode" : true,
      "debug_info" : "swa_model\/Mean_2",
      "use_version" : 1,
      "top" : "swa_model\/Mean_2",
      "type" : "reduce",
      "name" : "swa_model\/Mean_2"
    },
    {
      "axis_mode" : 4,
      "bottom" : "swa_model\/Relu_33",
      "weights" : {

      },
      "mode" : 9,
      "nd_axis" : 1,
      "nd_mode" : true,
      "debug_info" : "swa_model\/Max_2",
      "use_version" : 1,
      "top" : "swa_model\/Relu_33__reduction_axis__1_@ssa_version_1",
      "type" : "reduce",
      "name" : "swa_model\/Max_2__reduction_axis__0"
    },
    {
      "axis_mode" : 2,
      "bottom" : "swa_model\/Relu_33__reduction_axis__1_@ssa_version_1",
      "weights" : {

      },
      "mode" : 9,
      "nd_axis" : 2,
      "nd_mode" : true,
      "debug_info" : "swa_model\/Max_2",
      "use_version" : 1,
      "top" : "swa_model\/Max_2",
      "type" : "reduce",
      "name" : "swa_model\/Max_2"
    },
    {
      "bottom" : "swa_model\/Mean_2,_inversed_swa_model\/truediv_2",
      "alpha" : 1,
      "operation" : 1,
      "weights" : {

      },
      "fused_relu" : 0,
      "debug_info" : "swa_model\/mul_57",
      "nd_mode" : true,
      "top" : "swa_model\/mul_57",
      "type" : "elementwise",
      "name" : "swa_model\/mul_57",
      "beta" : 0
    },
    {
      "bottom" : "swa_model\/Mean_2,swa_model\/mul_57,swa_model\/Max_2",
      "weights" : {

      },
      "nd_mode" : true,
      "axis" : 3,
      "debug_info" : "swa_model\/concat_2",
      "top" : "swa_model\/concat_2",
      "type" : "general_concat",
      "name" : "swa_model\/concat_2"
    },
    {
      "name" : "swa_model\/Tensordot_3\/Reshape",
      "weights" : {

      },
      "dst_w" : 192,
      "version" : 1,
      "dst_n" : 1,
      "dst_nd_rank" : 2,
      "type" : "reshape",
      "dst_h" : -1,
      "mode" : 0,
      "dynamic_shape" : false,
      "bottom" : "swa_model\/concat_2",
      "debug_info" : "swa_model\/Tensordot_3\/Reshape",
      "dst_seq" : 1,
      "dst_k" : 1,
      "top" : "swa_model\/Tensordot_3\/Reshape"
    },
    {
      "nB" : 192,
      "top" : "swa_model\/Tensordot_3\/MatMul",
      "has_biases" : 0,
      "weights" : {

      },
      "nC" : 192,
      "blob_weights" : 183,
      "type" : "inner_product",
      "has_relu" : 0,
      "bottom" : "swa_model\/Tensordot_3\/Reshape",
      "debug_info" : "swa_model\/Tensordot_3\/MatMul",
      "has_tanh" : 0,
      "nd_mode" : true,
      "name" : "swa_model\/Tensordot_3\/MatMul",
      "has_prelu" : 0
    },
    {
      "name" : "swa_model\/Tensordot_3",
      "weights" : {

      },
      "dst_w" : 192,
      "version" : 1,
      "dst_n" : -1,
      "dst_nd_rank" : 4,
      "type" : "reshape",
      "dst_h" : 1,
      "mode" : 0,
      "dynamic_shape" : false,
      "bottom" : "swa_model\/Tensordot_3\/MatMul",
      "debug_info" : "swa_model\/Tensordot_3",
      "dst_seq" : 1,
      "dst_k" : 1,
      "top" : "swa_model\/Tensordot_3"
    },
    {
      "bottom" : "swa_model\/Tensordot_3,swa_model\/rconv16\/norm2\/gamma\/read\/_77__cf__77",
      "alpha" : 1,
      "operation" : 1,
      "weights" : {

      },
      "fused_relu" : 0,
      "debug_info" : "swa_model\/mul_60",
      "top" : "swa_model\/mul_60",
      "type" : "elementwise",
      "name" : "swa_model\/mul_60",
      "beta" : 0
    },
    {
      "bottom" : "swa_model\/add_68,swa_model\/mul_60",
      "alpha" : 1,
      "operation" : 0,
      "weights" : {

      },
      "fused_relu" : 0,
      "debug_info" : "swa_model\/add_69",
      "nd_mode" : true,
      "top" : "swa_model\/add_69",
      "type" : "elementwise",
      "name" : "swa_model\/add_69",
      "beta" : 0
    },
    {
      "bottom" : "swa_model\/add_69",
      "weights" : {

      },
      "mode" : 0,
      "debug_info" : "swa_model\/Relu_34",
      "top" : "swa_model\/Relu_34",
      "type" : "activation",
      "name" : "swa_model\/Relu_34"
    },
    {
      "axis_h" : 2,
      "axis_w" : 1,
      "bottom" : "swa_model\/Relu_34",
      "axis_k" : 0,
      "axis_n" : 3,
      "axis_seq" : 4,
      "weights" : {

      },
      "debug_info" : "transpose_307",
      "top" : "transpose_307",
      "type" : "transpose",
      "name" : "transpose_307"
    },
    {
      "pad_r" : 0,
      "fused_relu" : 0,
      "fused_tanh" : 0,
      "debug_info" : "swa_model\/Conv2D_35x",
      "pad_fill_mode" : 0,
      "pad_b" : 0,
      "pad_l" : 0,
      "top" : "swa_model\/Conv2D_35x",
      "blob_weights" : 185,
      "K" : 192,
      "name" : "swa_model\/Conv2D_35x",
      "has_batch_norm" : 0,
      "type" : "convolution",
      "n_groups" : 1,
      "pad_t" : 0,
      "has_biases" : 0,
      "C" : 256,
      "bottom" : "transpose_307",
      "weights" : {

      },
      "Nx" : 3,
      "pad_mode" : 1,
      "pad_value" : 0,
      "Ny" : 3,
      "n_parallel" : 1
    },
    {
      "axis_h" : 0,
      "axis_w" : 2,
      "bottom" : "swa_model\/Conv2D_35x",
      "axis_k" : 1,
      "axis_n" : 3,
      "axis_seq" : 4,
      "weights" : {

      },
      "debug_info" : "transpose_306",
      "top" : "transpose_306",
      "type" : "transpose",
      "name" : "transpose_306"
    },
    {
      "bottom" : "swa_model\/add_64,transpose_306",
      "alpha" : 1,
      "operation" : 0,
      "weights" : {

      },
      "fused_relu" : 0,
      "debug_info" : "swa_model\/add_70",
      "nd_mode" : true,
      "top" : "swa_model\/add_70",
      "type" : "elementwise",
      "name" : "swa_model\/add_70",
      "beta" : 0
    },
    {
      "top" : "swa_model\/rconv17\/norm1\/beta\/read\/_81__cf__81",
      "w" : 256,
      "h" : 1,
      "name" : "swa_model\/rconv17\/norm1\/beta\/read\/_81__cf__81",
      "nd_rank" : 1,
      "type" : "load_constant",
      "k" : 1,
      "bottom" : "",
      "debug_info" : "swa_model\/rconv17\/norm1\/beta\/read\/_81__cf__81",
      "n" : 1,
      "weights" : {

      },
      "constant_blob" : 187
    },
    {
      "bottom" : "swa_model\/add_70,swa_model\/rconv17\/norm1\/beta\/read\/_81__cf__81",
      "alpha" : 1,
      "operation" : 0,
      "weights" : {

      },
      "fused_relu" : 0,
      "debug_info" : "swa_model\/add_71",
      "nd_mode" : true,
      "top" : "swa_model\/add_71",
      "type" : "elementwise",
      "name" : "swa_model\/add_71",
      "beta" : 0
    },
    {
      "bottom" : "swa_model\/add_71",
      "weights" : {

      },
      "mode" : 0,
      "debug_info" : "swa_model\/Relu_35",
      "top" : "swa_model\/Relu_35",
      "type" : "activation",
      "name" : "swa_model\/Relu_35"
    },
    {
      "axis_h" : 2,
      "axis_w" : 1,
      "bottom" : "swa_model\/Relu_35",
      "axis_k" : 0,
      "axis_n" : 3,
      "axis_seq" : 4,
      "weights" : {

      },
      "debug_info" : "transpose_305",
      "top" : "transpose_305",
      "type" : "transpose",
      "name" : "transpose_305"
    },
    {
      "pad_r" : 0,
      "fused_relu" : 0,
      "fused_tanh" : 0,
      "debug_info" : "conv_16",
      "pad_fill_mode" : 0,
      "pad_b" : 0,
      "pad_l" : 0,
      "top" : "conv_16",
      "blob_weights" : 191,
      "K" : 256,
      "blob_biases" : 189,
      "name" : "conv_16",
      "has_batch_norm" : 0,
      "type" : "convolution",
      "n_groups" : 1,
      "pad_t" : 0,
      "has_biases" : 1,
      "C" : 256,
      "bottom" : "transpose_305",
      "weights" : {

      },
      "Nx" : 3,
      "pad_mode" : 1,
      "pad_value" : 0,
      "Ny" : 3,
      "n_parallel" : 1
    },
    {
      "axis_h" : 0,
      "axis_w" : 2,
      "bottom" : "conv_16",
      "axis_k" : 1,
      "axis_n" : 3,
      "axis_seq" : 4,
      "weights" : {

      },
      "debug_info" : "transpose_304",
      "top" : "transpose_304",
      "type" : "transpose",
      "name" : "transpose_304"
    },
    {
      "bottom" : "transpose_304",
      "weights" : {

      },
      "mode" : 0,
      "debug_info" : "swa_model\/Relu_36",
      "top" : "swa_model\/Relu_36",
      "type" : "activation",
      "name" : "swa_model\/Relu_36"
    },
    {
      "axis_h" : 2,
      "axis_w" : 1,
      "bottom" : "swa_model\/Relu_36",
      "axis_k" : 0,
      "axis_n" : 3,
      "axis_seq" : 4,
      "weights" : {

      },
      "debug_info" : "transpose_303",
      "top" : "transpose_303",
      "type" : "transpose",
      "name" : "transpose_303"
    },
    {
      "pad_r" : 0,
      "fused_relu" : 0,
      "fused_tanh" : 0,
      "debug_info" : "swa_model\/Conv2D_37x",
      "pad_fill_mode" : 0,
      "pad_b" : 0,
      "pad_l" : 0,
      "top" : "swa_model\/Conv2D_37x",
      "blob_weights" : 193,
      "K" : 256,
      "name" : "swa_model\/Conv2D_37x",
      "has_batch_norm" : 0,
      "type" : "convolution",
      "n_groups" : 1,
      "pad_t" : 0,
      "has_biases" : 0,
      "C" : 256,
      "bottom" : "transpose_303",
      "weights" : {

      },
      "Nx" : 3,
      "pad_mode" : 1,
      "pad_value" : 0,
      "Ny" : 3,
      "n_parallel" : 1
    },
    {
      "axis_h" : 0,
      "axis_w" : 2,
      "bottom" : "swa_model\/Conv2D_37x",
      "axis_k" : 1,
      "axis_n" : 3,
      "axis_seq" : 4,
      "weights" : {

      },
      "debug_info" : "transpose_302",
      "top" : "transpose_302",
      "type" : "transpose",
      "name" : "transpose_302"
    },
    {
      "bottom" : "swa_model\/add_70,transpose_302",
      "alpha" : 1,
      "operation" : 0,
      "weights" : {

      },
      "fused_relu" : 0,
      "debug_info" : "swa_model\/add_74",
      "top" : "swa_model\/add_74",
      "type" : "elementwise",
      "name" : "swa_model\/add_74",
      "beta" : 0
    },
    {
      "top" : "swa_model\/rconv18\/norm1\/beta\/read\/_86__cf__86",
      "w" : 256,
      "h" : 1,
      "name" : "swa_model\/rconv18\/norm1\/beta\/read\/_86__cf__86",
      "nd_rank" : 1,
      "type" : "load_constant",
      "k" : 1,
      "bottom" : "",
      "debug_info" : "swa_model\/rconv18\/norm1\/beta\/read\/_86__cf__86",
      "n" : 1,
      "weights" : {

      },
      "constant_blob" : 195
    },
    {
      "bottom" : "swa_model\/add_74,swa_model\/rconv18\/norm1\/beta\/read\/_86__cf__86",
      "alpha" : 1,
      "operation" : 0,
      "weights" : {

      },
      "fused_relu" : 0,
      "debug_info" : "swa_model\/add_75",
      "nd_mode" : true,
      "top" : "swa_model\/add_75",
      "type" : "elementwise",
      "name" : "swa_model\/add_75",
      "beta" : 0
    },
    {
      "bottom" : "swa_model\/add_75",
      "weights" : {

      },
      "mode" : 0,
      "debug_info" : "swa_model\/Relu_37",
      "top" : "swa_model\/Relu_37",
      "type" : "activation",
      "name" : "swa_model\/Relu_37"
    },
    {
      "axis_h" : 2,
      "axis_w" : 1,
      "bottom" : "swa_model\/Relu_37",
      "axis_k" : 0,
      "axis_n" : 3,
      "axis_seq" : 4,
      "weights" : {

      },
      "debug_info" : "transpose_301",
      "top" : "transpose_301",
      "type" : "transpose",
      "name" : "transpose_301"
    },
    {
      "pad_r" : 0,
      "fused_relu" : 0,
      "fused_tanh" : 0,
      "debug_info" : "conv_17",
      "pad_fill_mode" : 0,
      "pad_b" : 0,
      "pad_l" : 0,
      "top" : "conv_17",
      "blob_weights" : 199,
      "K" : 256,
      "blob_biases" : 197,
      "name" : "conv_17",
      "has_batch_norm" : 0,
      "type" : "convolution",
      "n_groups" : 1,
      "pad_t" : 0,
      "has_biases" : 1,
      "C" : 256,
      "bottom" : "transpose_301",
      "weights" : {

      },
      "Nx" : 3,
      "pad_mode" : 1,
      "pad_value" : 0,
      "Ny" : 3,
      "n_parallel" : 1
    },
    {
      "axis_h" : 0,
      "axis_w" : 2,
      "bottom" : "conv_17",
      "axis_k" : 1,
      "axis_n" : 3,
      "axis_seq" : 4,
      "weights" : {

      },
      "debug_info" : "transpose_300",
      "top" : "transpose_300",
      "type" : "transpose",
      "name" : "transpose_300"
    },
    {
      "bottom" : "transpose_300",
      "weights" : {

      },
      "mode" : 0,
      "debug_info" : "swa_model\/Relu_38",
      "top" : "swa_model\/Relu_38",
      "type" : "activation",
      "name" : "swa_model\/Relu_38"
    },
    {
      "axis_h" : 2,
      "axis_w" : 1,
      "bottom" : "swa_model\/Relu_38",
      "axis_k" : 0,
      "axis_n" : 3,
      "axis_seq" : 4,
      "weights" : {

      },
      "debug_info" : "transpose_299",
      "top" : "transpose_299",
      "type" : "transpose",
      "name" : "transpose_299"
    },
    {
      "pad_r" : 0,
      "fused_relu" : 0,
      "fused_tanh" : 0,
      "debug_info" : "swa_model\/Conv2D_39x",
      "pad_fill_mode" : 0,
      "pad_b" : 0,
      "pad_l" : 0,
      "top" : "swa_model\/Conv2D_39x",
      "blob_weights" : 201,
      "K" : 256,
      "name" : "swa_model\/Conv2D_39x",
      "has_batch_norm" : 0,
      "type" : "convolution",
      "n_groups" : 1,
      "pad_t" : 0,
      "has_biases" : 0,
      "C" : 256,
      "bottom" : "transpose_299",
      "weights" : {

      },
      "Nx" : 3,
      "pad_mode" : 1,
      "pad_value" : 0,
      "Ny" : 3,
      "n_parallel" : 1
    },
    {
      "axis_h" : 0,
      "axis_w" : 2,
      "bottom" : "swa_model\/Conv2D_39x",
      "axis_k" : 1,
      "axis_n" : 3,
      "axis_seq" : 4,
      "weights" : {

      },
      "debug_info" : "transpose_298",
      "top" : "transpose_298",
      "type" : "transpose",
      "name" : "transpose_298"
    },
    {
      "bottom" : "swa_model\/add_74,transpose_298",
      "alpha" : 1,
      "operation" : 0,
      "weights" : {

      },
      "fused_relu" : 0,
      "debug_info" : "swa_model\/add_78",
      "top" : "swa_model\/add_78",
      "type" : "elementwise",
      "name" : "swa_model\/add_78",
      "beta" : 0
    },
    {
      "top" : "swa_model\/rconv19\/norm1\/beta\/read\/_91__cf__91",
      "w" : 256,
      "h" : 1,
      "name" : "swa_model\/rconv19\/norm1\/beta\/read\/_91__cf__91",
      "nd_rank" : 1,
      "type" : "load_constant",
      "k" : 1,
      "bottom" : "",
      "debug_info" : "swa_model\/rconv19\/norm1\/beta\/read\/_91__cf__91",
      "n" : 1,
      "weights" : {

      },
      "constant_blob" : 203
    },
    {
      "bottom" : "swa_model\/add_78,swa_model\/rconv19\/norm1\/beta\/read\/_91__cf__91",
      "alpha" : 1,
      "operation" : 0,
      "weights" : {

      },
      "fused_relu" : 0,
      "debug_info" : "swa_model\/add_79",
      "nd_mode" : true,
      "top" : "swa_model\/add_79",
      "type" : "elementwise",
      "name" : "swa_model\/add_79",
      "beta" : 0
    },
    {
      "bottom" : "swa_model\/add_79",
      "weights" : {

      },
      "mode" : 0,
      "debug_info" : "swa_model\/Relu_39",
      "top" : "swa_model\/Relu_39",
      "type" : "activation",
      "name" : "swa_model\/Relu_39"
    },
    {
      "axis_h" : 2,
      "axis_w" : 1,
      "bottom" : "swa_model\/Relu_39",
      "axis_k" : 0,
      "axis_n" : 3,
      "axis_seq" : 4,
      "weights" : {

      },
      "debug_info" : "transpose_297",
      "top" : "transpose_297",
      "type" : "transpose",
      "name" : "transpose_297"
    },
    {
      "pad_r" : 0,
      "fused_relu" : 0,
      "fused_tanh" : 0,
      "debug_info" : "conv_18",
      "pad_fill_mode" : 0,
      "pad_b" : 0,
      "pad_l" : 0,
      "top" : "conv_18",
      "blob_weights" : 207,
      "K" : 256,
      "blob_biases" : 205,
      "name" : "conv_18",
      "has_batch_norm" : 0,
      "type" : "convolution",
      "n_groups" : 1,
      "pad_t" : 0,
      "has_biases" : 1,
      "C" : 256,
      "bottom" : "transpose_297",
      "weights" : {

      },
      "Nx" : 3,
      "pad_mode" : 1,
      "pad_value" : 0,
      "Ny" : 3,
      "n_parallel" : 1
    },
    {
      "axis_h" : 0,
      "axis_w" : 2,
      "bottom" : "conv_18",
      "axis_k" : 1,
      "axis_n" : 3,
      "axis_seq" : 4,
      "weights" : {

      },
      "debug_info" : "transpose_296",
      "top" : "transpose_296",
      "type" : "transpose",
      "name" : "transpose_296"
    },
    {
      "bottom" : "transpose_296",
      "weights" : {

      },
      "mode" : 0,
      "debug_info" : "swa_model\/Relu_40",
      "top" : "swa_model\/Relu_40",
      "type" : "activation",
      "name" : "swa_model\/Relu_40"
    },
    {
      "axis_h" : 2,
      "axis_w" : 1,
      "bottom" : "swa_model\/Relu_40",
      "axis_k" : 0,
      "axis_n" : 3,
      "axis_seq" : 4,
      "weights" : {

      },
      "debug_info" : "transpose_295",
      "top" : "transpose_295",
      "type" : "transpose",
      "name" : "transpose_295"
    },
    {
      "pad_r" : 0,
      "fused_relu" : 0,
      "fused_tanh" : 0,
      "debug_info" : "swa_model\/Conv2D_41x",
      "pad_fill_mode" : 0,
      "pad_b" : 0,
      "pad_l" : 0,
      "top" : "swa_model\/Conv2D_41x",
      "blob_weights" : 209,
      "K" : 256,
      "name" : "swa_model\/Conv2D_41x",
      "has_batch_norm" : 0,
      "type" : "convolution",
      "n_groups" : 1,
      "pad_t" : 0,
      "has_biases" : 0,
      "C" : 256,
      "bottom" : "transpose_295",
      "weights" : {

      },
      "Nx" : 3,
      "pad_mode" : 1,
      "pad_value" : 0,
      "Ny" : 3,
      "n_parallel" : 1
    },
    {
      "axis_h" : 0,
      "axis_w" : 2,
      "bottom" : "swa_model\/Conv2D_41x",
      "axis_k" : 1,
      "axis_n" : 3,
      "axis_seq" : 4,
      "weights" : {

      },
      "debug_info" : "transpose_294",
      "top" : "transpose_294",
      "type" : "transpose",
      "name" : "transpose_294"
    },
    {
      "bottom" : "swa_model\/add_78,transpose_294",
      "alpha" : 1,
      "operation" : 0,
      "weights" : {

      },
      "fused_relu" : 0,
      "debug_info" : "swa_model\/add_82",
      "top" : "swa_model\/add_82",
      "type" : "elementwise",
      "name" : "swa_model\/add_82",
      "beta" : 0
    },
    {
      "top" : "swa_model\/rconv20\/norm1\/beta\/read\/_101__cf__101",
      "w" : 256,
      "h" : 1,
      "name" : "swa_model\/rconv20\/norm1\/beta\/read\/_101__cf__101",
      "nd_rank" : 1,
      "type" : "load_constant",
      "k" : 1,
      "bottom" : "",
      "debug_info" : "swa_model\/rconv20\/norm1\/beta\/read\/_101__cf__101",
      "n" : 1,
      "weights" : {

      },
      "constant_blob" : 211
    },
    {
      "bottom" : "swa_model\/add_82,swa_model\/rconv20\/norm1\/beta\/read\/_101__cf__101",
      "alpha" : 1,
      "operation" : 0,
      "weights" : {

      },
      "fused_relu" : 0,
      "debug_info" : "swa_model\/add_83",
      "nd_mode" : true,
      "top" : "swa_model\/add_83",
      "type" : "elementwise",
      "name" : "swa_model\/add_83",
      "beta" : 0
    },
    {
      "bottom" : "swa_model\/add_83",
      "weights" : {

      },
      "mode" : 0,
      "debug_info" : "swa_model\/Relu_41",
      "top" : "swa_model\/Relu_41",
      "type" : "activation",
      "name" : "swa_model\/Relu_41"
    },
    {
      "axis_h" : 2,
      "axis_w" : 1,
      "bottom" : "swa_model\/Relu_41",
      "axis_k" : 0,
      "axis_n" : 3,
      "axis_seq" : 4,
      "weights" : {

      },
      "debug_info" : "transpose_293",
      "top" : "transpose_293",
      "type" : "transpose",
      "name" : "transpose_293"
    },
    {
      "pad_r" : 0,
      "fused_relu" : 0,
      "fused_tanh" : 0,
      "debug_info" : "conv_19",
      "pad_fill_mode" : 0,
      "pad_b" : 0,
      "pad_l" : 0,
      "top" : "conv_19",
      "blob_weights" : 215,
      "K" : 256,
      "blob_biases" : 213,
      "name" : "conv_19",
      "has_batch_norm" : 0,
      "type" : "convolution",
      "n_groups" : 1,
      "pad_t" : 0,
      "has_biases" : 1,
      "C" : 256,
      "bottom" : "transpose_293",
      "weights" : {

      },
      "Nx" : 3,
      "pad_mode" : 1,
      "pad_value" : 0,
      "Ny" : 3,
      "n_parallel" : 1
    },
    {
      "axis_h" : 0,
      "axis_w" : 2,
      "bottom" : "conv_19",
      "axis_k" : 1,
      "axis_n" : 3,
      "axis_seq" : 4,
      "weights" : {

      },
      "debug_info" : "transpose_292",
      "top" : "transpose_292",
      "type" : "transpose",
      "name" : "transpose_292"
    },
    {
      "bottom" : "transpose_292",
      "weights" : {

      },
      "mode" : 0,
      "debug_info" : "swa_model\/Relu_42",
      "top" : "swa_model\/Relu_42",
      "type" : "activation",
      "name" : "swa_model\/Relu_42"
    },
    {
      "axis_h" : 2,
      "axis_w" : 1,
      "bottom" : "swa_model\/Relu_42",
      "axis_k" : 0,
      "axis_n" : 3,
      "axis_seq" : 4,
      "weights" : {

      },
      "debug_info" : "transpose_291",
      "top" : "transpose_291",
      "type" : "transpose",
      "name" : "transpose_291"
    },
    {
      "pad_r" : 0,
      "fused_relu" : 0,
      "fused_tanh" : 0,
      "debug_info" : "swa_model\/Conv2D_43x",
      "pad_fill_mode" : 0,
      "pad_b" : 0,
      "pad_l" : 0,
      "top" : "swa_model\/Conv2D_43x",
      "blob_weights" : 217,
      "K" : 256,
      "name" : "swa_model\/Conv2D_43x",
      "has_batch_norm" : 0,
      "type" : "convolution",
      "n_groups" : 1,
      "pad_t" : 0,
      "has_biases" : 0,
      "C" : 256,
      "bottom" : "transpose_291",
      "weights" : {

      },
      "Nx" : 3,
      "pad_mode" : 1,
      "pad_value" : 0,
      "Ny" : 3,
      "n_parallel" : 1
    },
    {
      "axis_h" : 0,
      "axis_w" : 2,
      "bottom" : "swa_model\/Conv2D_43x",
      "axis_k" : 1,
      "axis_n" : 3,
      "axis_seq" : 4,
      "weights" : {

      },
      "debug_info" : "transpose_290",
      "top" : "transpose_290",
      "type" : "transpose",
      "name" : "transpose_290"
    },
    {
      "bottom" : "swa_model\/add_82,transpose_290",
      "alpha" : 1,
      "operation" : 0,
      "weights" : {

      },
      "fused_relu" : 0,
      "debug_info" : "swa_model\/add_86",
      "top" : "swa_model\/add_86",
      "type" : "elementwise",
      "name" : "swa_model\/add_86",
      "beta" : 0
    },
    {
      "top" : "swa_model\/rconv21\/norm1\/beta\/read\/_106__cf__106",
      "w" : 256,
      "h" : 1,
      "name" : "swa_model\/rconv21\/norm1\/beta\/read\/_106__cf__106",
      "nd_rank" : 1,
      "type" : "load_constant",
      "k" : 1,
      "bottom" : "",
      "debug_info" : "swa_model\/rconv21\/norm1\/beta\/read\/_106__cf__106",
      "n" : 1,
      "weights" : {

      },
      "constant_blob" : 219
    },
    {
      "bottom" : "swa_model\/add_86,swa_model\/rconv21\/norm1\/beta\/read\/_106__cf__106",
      "alpha" : 1,
      "operation" : 0,
      "weights" : {

      },
      "fused_relu" : 0,
      "debug_info" : "swa_model\/add_87",
      "nd_mode" : true,
      "top" : "swa_model\/add_87",
      "type" : "elementwise",
      "name" : "swa_model\/add_87",
      "beta" : 0
    },
    {
      "bottom" : "swa_model\/add_87",
      "weights" : {

      },
      "mode" : 0,
      "debug_info" : "swa_model\/Relu_43",
      "top" : "swa_model\/Relu_43",
      "type" : "activation",
      "name" : "swa_model\/Relu_43"
    },
    {
      "axis_h" : 2,
      "axis_w" : 1,
      "bottom" : "swa_model\/Relu_43",
      "axis_k" : 0,
      "axis_n" : 3,
      "axis_seq" : 4,
      "weights" : {

      },
      "debug_info" : "transpose_289",
      "top" : "transpose_289",
      "type" : "transpose",
      "name" : "transpose_289"
    },
    {
      "pad_r" : 0,
      "fused_relu" : 0,
      "fused_tanh" : 0,
      "debug_info" : "conv_20",
      "pad_fill_mode" : 0,
      "pad_b" : 0,
      "pad_l" : 0,
      "top" : "conv_20",
      "blob_weights" : 223,
      "K" : 256,
      "blob_biases" : 221,
      "name" : "conv_20",
      "has_batch_norm" : 0,
      "type" : "convolution",
      "n_groups" : 1,
      "pad_t" : 0,
      "has_biases" : 1,
      "C" : 64,
      "bottom" : "transpose_289",
      "weights" : {

      },
      "Nx" : 3,
      "pad_mode" : 1,
      "pad_value" : 0,
      "Ny" : 3,
      "n_parallel" : 1
    },
    {
      "axis_h" : 2,
      "axis_w" : 1,
      "bottom" : "swa_model\/Relu_43",
      "axis_k" : 0,
      "axis_n" : 3,
      "axis_seq" : 4,
      "weights" : {

      },
      "debug_info" : "transpose_287",
      "top" : "transpose_287",
      "type" : "transpose",
      "name" : "transpose_287"
    },
    {
      "pad_r" : 0,
      "fused_relu" : 0,
      "fused_tanh" : 0,
      "debug_info" : "swa_model\/Conv2D_44x",
      "pad_fill_mode" : 0,
      "pad_b" : 0,
      "pad_l" : 0,
      "top" : "swa_model\/Conv2D_44x",
      "blob_weights" : 225,
      "K" : 256,
      "name" : "swa_model\/Conv2D_44x",
      "has_batch_norm" : 0,
      "type" : "convolution",
      "n_groups" : 1,
      "pad_t" : 0,
      "has_biases" : 0,
      "C" : 192,
      "bottom" : "transpose_287",
      "weights" : {

      },
      "Nx" : 3,
      "pad_mode" : 1,
      "pad_value" : 0,
      "Ny" : 3,
      "n_parallel" : 1
    },
    {
      "axis_h" : 0,
      "axis_w" : 2,
      "bottom" : "swa_model\/Conv2D_44x",
      "axis_k" : 1,
      "axis_n" : 3,
      "axis_seq" : 4,
      "weights" : {

      },
      "debug_info" : "transpose_286",
      "top" : "transpose_286",
      "type" : "transpose",
      "name" : "transpose_286"
    },
    {
      "top" : "swa_model\/rconv21\/norm2\/gamma\/read\/_109__cf__109",
      "w" : 192,
      "h" : 1,
      "name" : "swa_model\/rconv21\/norm2\/gamma\/read\/_109__cf__109",
      "nd_rank" : 1,
      "type" : "load_constant",
      "k" : 1,
      "bottom" : "",
      "debug_info" : "swa_model\/rconv21\/norm2\/gamma\/read\/_109__cf__109",
      "n" : 1,
      "weights" : {

      },
      "constant_blob" : 227
    },
    {
      "bottom" : "transpose_286,swa_model\/rconv21\/norm2\/gamma\/read\/_109__cf__109",
      "alpha" : 1,
      "operation" : 1,
      "weights" : {

      },
      "fused_relu" : 0,
      "debug_info" : "swa_model\/mul_78",
      "nd_mode" : true,
      "top" : "swa_model\/mul_78",
      "type" : "elementwise",
      "name" : "swa_model\/mul_78",
      "beta" : 0
    },
    {
      "axis_h" : 0,
      "axis_w" : 2,
      "bottom" : "conv_20",
      "axis_k" : 1,
      "axis_n" : 3,
      "axis_seq" : 4,
      "weights" : {

      },
      "debug_info" : "transpose_288",
      "top" : "transpose_288",
      "type" : "transpose",
      "name" : "transpose_288"
    },
    {
      "bottom" : "transpose_288",
      "weights" : {

      },
      "mode" : 0,
      "debug_info" : "swa_model\/Relu_44",
      "top" : "swa_model\/Relu_44",
      "type" : "activation",
      "name" : "swa_model\/Relu_44"
    },
    {
      "top" : "swa_model\/rconv21\/norm2\/beta\/read\/_108__cf__108",
      "w" : 192,
      "h" : 1,
      "name" : "swa_model\/rconv21\/norm2\/beta\/read\/_108__cf__108",
      "nd_rank" : 1,
      "type" : "load_constant",
      "k" : 1,
      "bottom" : "",
      "debug_info" : "swa_model\/rconv21\/norm2\/beta\/read\/_108__cf__108",
      "n" : 1,
      "weights" : {

      },
      "constant_blob" : 229
    },
    {
      "bottom" : "swa_model\/mul_78,swa_model\/rconv21\/norm2\/beta\/read\/_108__cf__108",
      "alpha" : 1,
      "operation" : 0,
      "weights" : {

      },
      "fused_relu" : 0,
      "debug_info" : "swa_model\/add_90",
      "nd_mode" : true,
      "top" : "swa_model\/add_90",
      "type" : "elementwise",
      "name" : "swa_model\/add_90",
      "beta" : 0
    },
    {
      "axis_mode" : 4,
      "bottom" : "swa_model\/Relu_44",
      "weights" : {

      },
      "mode" : 1,
      "nd_axis" : 1,
      "nd_mode" : true,
      "debug_info" : "swa_model\/Mean_3",
      "use_version" : 1,
      "top" : "swa_model\/Relu_44__reduction_axis__1",
      "type" : "reduce",
      "name" : "swa_model\/Mean_3__reduction_axis__0"
    },
    {
      "axis_mode" : 2,
      "bottom" : "swa_model\/Relu_44__reduction_axis__1",
      "weights" : {

      },
      "mode" : 1,
      "nd_axis" : 2,
      "nd_mode" : true,
      "debug_info" : "swa_model\/Mean_3",
      "use_version" : 1,
      "top" : "swa_model\/Mean_3",
      "type" : "reduce",
      "name" : "swa_model\/Mean_3"
    },
    {
      "axis_mode" : 4,
      "bottom" : "swa_model\/Relu_44",
      "weights" : {

      },
      "mode" : 9,
      "nd_axis" : 1,
      "nd_mode" : true,
      "debug_info" : "swa_model\/Max_3",
      "use_version" : 1,
      "top" : "swa_model\/Relu_44__reduction_axis__1_@ssa_version_1",
      "type" : "reduce",
      "name" : "swa_model\/Max_3__reduction_axis__0"
    },
    {
      "axis_mode" : 2,
      "bottom" : "swa_model\/Relu_44__reduction_axis__1_@ssa_version_1",
      "weights" : {

      },
      "mode" : 9,
      "nd_axis" : 2,
      "nd_mode" : true,
      "debug_info" : "swa_model\/Max_3",
      "use_version" : 1,
      "top" : "swa_model\/Max_3",
      "type" : "reduce",
      "name" : "swa_model\/Max_3"
    },
    {
      "bottom" : "swa_model\/Mean_3,_inversed_swa_model\/truediv_3",
      "alpha" : 1,
      "operation" : 1,
      "weights" : {

      },
      "fused_relu" : 0,
      "debug_info" : "swa_model\/mul_76",
      "nd_mode" : true,
      "top" : "swa_model\/mul_76",
      "type" : "elementwise",
      "name" : "swa_model\/mul_76",
      "beta" : 0
    },
    {
      "bottom" : "swa_model\/Mean_3,swa_model\/mul_76,swa_model\/Max_3",
      "weights" : {

      },
      "nd_mode" : true,
      "axis" : 3,
      "debug_info" : "swa_model\/concat_3",
      "top" : "swa_model\/concat_3",
      "type" : "general_concat",
      "name" : "swa_model\/concat_3"
    },
    {
      "name" : "swa_model\/Tensordot_4\/Reshape",
      "weights" : {

      },
      "dst_w" : 192,
      "version" : 1,
      "dst_n" : 1,
      "dst_nd_rank" : 2,
      "type" : "reshape",
      "dst_h" : -1,
      "mode" : 0,
      "dynamic_shape" : false,
      "bottom" : "swa_model\/concat_3",
      "debug_info" : "swa_model\/Tensordot_4\/Reshape",
      "dst_seq" : 1,
      "dst_k" : 1,
      "top" : "swa_model\/Tensordot_4\/Reshape"
    },
    {
      "nB" : 192,
      "top" : "swa_model\/Tensordot_4\/MatMul",
      "has_biases" : 0,
      "weights" : {

      },
      "nC" : 192,
      "blob_weights" : 231,
      "type" : "inner_product",
      "has_relu" : 0,
      "bottom" : "swa_model\/Tensordot_4\/Reshape",
      "debug_info" : "swa_model\/Tensordot_4\/MatMul",
      "has_tanh" : 0,
      "nd_mode" : true,
      "name" : "swa_model\/Tensordot_4\/MatMul",
      "has_prelu" : 0
    },
    {
      "name" : "swa_model\/Tensordot_4",
      "weights" : {

      },
      "dst_w" : 192,
      "version" : 1,
      "dst_n" : -1,
      "dst_nd_rank" : 4,
      "type" : "reshape",
      "dst_h" : 1,
      "mode" : 0,
      "dynamic_shape" : false,
      "bottom" : "swa_model\/Tensordot_4\/MatMul",
      "debug_info" : "swa_model\/Tensordot_4",
      "dst_seq" : 1,
      "dst_k" : 1,
      "top" : "swa_model\/Tensordot_4"
    },
    {
      "bottom" : "swa_model\/Tensordot_4,swa_model\/rconv21\/norm2\/gamma\/read\/_109__cf__109",
      "alpha" : 1,
      "operation" : 1,
      "weights" : {

      },
      "fused_relu" : 0,
      "debug_info" : "swa_model\/mul_79",
      "top" : "swa_model\/mul_79",
      "type" : "elementwise",
      "name" : "swa_model\/mul_79",
      "beta" : 0
    },
    {
      "bottom" : "swa_model\/add_90,swa_model\/mul_79",
      "alpha" : 1,
      "operation" : 0,
      "weights" : {

      },
      "fused_relu" : 0,
      "debug_info" : "swa_model\/add_91",
      "nd_mode" : true,
      "top" : "swa_model\/add_91",
      "type" : "elementwise",
      "name" : "swa_model\/add_91",
      "beta" : 0
    },
    {
      "bottom" : "swa_model\/add_91",
      "weights" : {

      },
      "mode" : 0,
      "debug_info" : "swa_model\/Relu_45",
      "top" : "swa_model\/Relu_45",
      "type" : "activation",
      "name" : "swa_model\/Relu_45"
    },
    {
      "axis_h" : 2,
      "axis_w" : 1,
      "bottom" : "swa_model\/Relu_45",
      "axis_k" : 0,
      "axis_n" : 3,
      "axis_seq" : 4,
      "weights" : {

      },
      "debug_info" : "transpose_285",
      "top" : "transpose_285",
      "type" : "transpose",
      "name" : "transpose_285"
    },
    {
      "pad_r" : 0,
      "fused_relu" : 0,
      "fused_tanh" : 0,
      "debug_info" : "swa_model\/Conv2D_46x",
      "pad_fill_mode" : 0,
      "pad_b" : 0,
      "pad_l" : 0,
      "top" : "swa_model\/Conv2D_46x",
      "blob_weights" : 233,
      "K" : 192,
      "name" : "swa_model\/Conv2D_46x",
      "has_batch_norm" : 0,
      "type" : "convolution",
      "n_groups" : 1,
      "pad_t" : 0,
      "has_biases" : 0,
      "C" : 256,
      "bottom" : "transpose_285",
      "weights" : {

      },
      "Nx" : 3,
      "pad_mode" : 1,
      "pad_value" : 0,
      "Ny" : 3,
      "n_parallel" : 1
    },
    {
      "axis_h" : 0,
      "axis_w" : 2,
      "bottom" : "swa_model\/Conv2D_46x",
      "axis_k" : 1,
      "axis_n" : 3,
      "axis_seq" : 4,
      "weights" : {

      },
      "debug_info" : "transpose_284",
      "top" : "transpose_284",
      "type" : "transpose",
      "name" : "transpose_284"
    },
    {
      "bottom" : "swa_model\/add_86,transpose_284",
      "alpha" : 1,
      "operation" : 0,
      "weights" : {

      },
      "fused_relu" : 0,
      "debug_info" : "swa_model\/add_92",
…
        "n" : 1,
        "_rank" : 4,
        "h" : 19
      },
      "swa_model\/Relu_42" : {
        "k" : 19,
        "w" : 256,
        "n" : 1,
        "_rank" : 4,
        "h" : 19
      },
      "swa_model\/Relu_26" : {
        "k" : 19,
        "w" : 256,
        "n" : 1,
        "_rank" : 4,
        "h" : 19
      },
      "swa_model\/cond_4\/Merge_@ssa_version_1" : {
        "k" : 19,
        "w" : 2,
        "n" : 1,
        "_rank" : 4,
        "h" : 19
      },
      "swa_model\/add_131" : {
        "k" : 19,
        "w" : 256,
        "n" : 1,
        "_rank" : 4,
        "h" : 19
      },
      "swa_model\/add_115" : {
        "k" : 19,
        "w" : 256,
        "n" : 1,
        "_rank" : 4,
        "h" : 19
      },
      "swa_model\/add_53" : {
        "k" : 19,
        "w" : 256,
        "n" : 1,
        "_rank" : 4,
        "h" : 19
      },
      "swa_model\/Relu_73" : {
        "k" : 19,
        "w" : 256,
        "n" : 1,
        "_rank" : 4,
        "h" : 19
      },
      "swa_model\/Relu_57" : {
        "k" : 19,
        "w" : 256,
        "n" : 1,
        "_rank" : 4,
        "h" : 19
      },
      "swa_model\/add_162" : {
        "k" : 19,
        "w" : 256,
        "n" : 1,
        "_rank" : 4,
        "h" : 19
      },
      "transpose_255" : {
        "k" : 256,
        "w" : 19,
        "n" : 1,
        "_rank" : 4,
        "h" : 19
      },
      "swa_model\/mul_133" : {
        "k" : 1,
        "w" : 64,
        "n" : 1,
        "_rank" : 4,
        "h" : 1
      },
      "swa_model\/mul_117" : {
        "k" : 1,
        "w" : 192,
        "n" : 1,
        "_rank" : 4,
        "h" : 1
      },
      "transpose_210" : {
        "k" : 19,
        "w" : 256,
        "n" : 1,
        "_rank" : 4,
        "h" : 19
      },
      "swa_model\/sub_5\/y" : {
        "k" : 1,
        "w" : 1,
        "n" : 1,
        "_rank" : 1,
        "h" : 1
      },
      "transpose_325" : {
        "k" : 256,
        "w" : 19,
        "n" : 1,
        "_rank" : 4,
        "h" : 19
      },
      "swa_model\/Relu_88" : {
        "k" : 19,
        "w" : 48,
        "n" : 1,
        "_rank" : 4,
        "h" : 19
      },
      "swa_model\/add_177" : {
        "k" : 19,
        "w" : 48,
        "n" : 1,
        "_rank" : 4,
        "h" : 19
      },
      "swa_model\/Conv2D_79x" : {
        "k" : 256,
        "w" : 19,
        "n" : 1,
        "_rank" : 4,
        "h" : 19
      },
      "swa_model\/add_79" : {
        "k" : 19,
        "w" : 256,
        "n" : 1,
        "_rank" : 4,
        "h" : 19
      },
      "swa_model\/concat_1" : {
        "k" : 1,
        "w" : 192,
        "n" : 1,
        "_rank" : 4,
        "h" : 1
      },
      "swa_model\/Conv2D_57x" : {
        "k" : 256,
        "w" : 19,
        "n" : 1,
        "_rank" : 4,
        "h" : 19
      },
      "swa_model\/cond_4\/Merge_@ssa_version_2" : {
        "k" : 19,
        "w" : 2,
        "n" : 1,
        "_rank" : 4,
        "h" : 19
      },
      "swa_model\/Conv2D_35x" : {
        "k" : 256,
        "w" : 19,
        "n" : 1,
        "_rank" : 4,
        "h" : 19
      },
      "transpose_372" : {
        "k" : 19,
        "w" : 256,
        "n" : 1,
        "_rank" : 4,
        "h" : 19
      },
      "swa_model\/Conv2D_13x" : {
        "k" : 256,
        "w" : 19,
        "n" : 1,
        "_rank" : 4,
        "h" : 19
      },
      "swa_model\/Conv2D_8x" : {
        "k" : 256,
        "w" : 19,
        "n" : 1,
        "_rank" : 4,
        "h" : 19
      },
      "transpose_259" : {
        "k" : 256,
        "w" : 19,
        "n" : 1,
        "_rank" : 4,
        "h" : 19
      },
      "swa_model\/concat_8" : {
        "k" : 1,
        "w" : 2,
        "n" : 1,
        "_rank" : 3,
        "h" : 362
      },
      "swa_model\/add_8" : {
        "k" : 19,
        "w" : 256,
        "n" : 1,
        "_rank" : 4,
        "h" : 19
      },
      "transpose_214" : {
        "k" : 19,
        "w" : 256,
        "n" : 1,
        "_rank" : 4,
        "h" : 19
      },
      "transpose_329" : {
        "k" : 192,
        "w" : 19,
        "n" : 1,
        "_rank" : 4,
        "h" : 19
      },
      "swa_model\/Tensordot_9\/MatMul" : {
        "k" : 1,
        "w" : 2,
        "n" : 1,
        "_rank" : 2,
        "h" : 1
      },
      "swa_model\/Relu_33__reduction_axis__1" : {
        "k" : 1,
        "w" : 64,
        "n" : 1,
        "_rank" : 4,
        "h" : 19
      },
      "conv_18" : {
        "k" : 256,
        "w" : 19,
        "n" : 1,
        "_rank" : 4,
        "h" : 19
      },
      "swa_model\/cond_4\/Merge_@ssa_version_3" : {
        "k" : 19,
        "w" : 2,
        "n" : 1,
        "_rank" : 4,
        "h" : 19
      },
      "transpose_191" : {
        "k" : 19,
        "w" : 2,
        "n" : 1,
        "_rank" : 4,
        "h" : 19
      },
      "swa_model\/mul_76" : {
        "k" : 1,
        "w" : 64,
        "n" : 1,
        "_rank" : 4,
        "h" : 1
      },
      "transpose_261" : {
        "k" : 256,
        "w" : 19,
        "n" : 1,
        "_rank" : 4,
        "h" : 19
      },
      "transpose_376" : {
        "k" : 19,
        "w" : 256,
        "n" : 1,
        "_rank" : 4,
        "h" : 19
      },
      "swa_model\/cond_8\/ReverseV2" : {
        "k" : 19,
        "w" : 1,
        "n" : 1,
        "_rank" : 4,
        "h" : 19
      },
      "transpose_331" : {
        "k" : 256,
        "w" : 19,
        "n" : 1,
        "_rank" : 4,
        "h" : 19
      },
      "swa_model\/Tensordot_8" : {
        "k" : 1,
        "w" : 48,
        "n" : 1,
        "_rank" : 4,
        "h" : 1
      },
      "swa_model\/concat" : {
        "k" : 1,
        "w" : 192,
        "n" : 1,
        "_rank" : 4,
        "h" : 1
      },
      "swa_model\/add_9" : {
        "k" : 19,
        "w" : 256,
        "n" : 1,
        "_rank" : 4,
        "h" : 19
      },
      "transpose_218" : {
        "k" : 19,
        "w" : 256,
        "n" : 1,
        "_rank" : 4,
        "h" : 19
      },
      "conv_25" : {
        "k" : 64,
        "w" : 19,
        "n" : 1,
        "_rank" : 4,
        "h" : 19
      },
      "swa_model\/p1\/norm\/beta\/read\/_35__cf__35" : {
        "k" : 1,
        "w" : 48,
        "n" : 1,
        "_rank" : 1,
        "h" : 1
      },
      "swa_model\/rconv13\/norm1\/beta\/read\/_59__cf__59" : {
        "k" : 1,
        "w" : 256,
        "n" : 1,
        "_rank" : 1,
        "h" : 1
      },
      "swa_model\/Relu_1" : {
        "k" : 19,
        "w" : 256,
        "n" : 1,
        "_rank" : 4,
        "h" : 19
      },
      "swa_model\/cond_1\/pred_id\/_21__cf__21" : {
        "k" : 1,
        "w" : 1,
        "n" : 1,
        "_rank" : 1,
        "h" : 1
      },
      "transpose_195" : {
        "k" : 48,
        "w" : 19,
        "n" : 1,
        "_rank" : 4,
        "h" : 19
      },
      "transpose_265" : {
        "k" : 256,
        "w" : 19,
        "n" : 1,
        "_rank" : 4,
        "h" : 19
      },
      "swa_model\/Relu_12" : {
        "k" : 19,
        "w" : 192,
        "n" : 1,
        "_rank" : 4,
        "h" : 19
      },
      "swa_model\/strided_slice_1__reduction_axis__1" : {
        "k" : 1,
        "w" : 1,
        "n" : 1,
        "_rank" : 4,
        "h" : 19
      },
      "swa_model\/add_101" : {
        "k" : 19,
        "w" : 256,
        "n" : 1,
        "_rank" : 4,
        "h" : 19
      },
      "transpose_220" : {
        "k" : 19,
        "w" : 192,
        "n" : 1,
        "_rank" : 4,
        "h" : 19
      },
      "transpose_335" : {
        "k" : 256,
        "w" : 19,
        "n" : 1,
        "_rank" : 4,
        "h" : 19
      },
      "conv_32" : {
        "k" : 256,
        "w" : 19,
        "n" : 1,
        "_rank" : 4,
        "h" : 19
      },
      "swa_model\/Relu_43" : {
        "k" : 19,
        "w" : 256,
        "n" : 1,
        "_rank" : 4,
        "h" : 19
      },
      "swa_model\/Relu_27" : {
        "k" : 19,
        "w" : 256,
        "n" : 1,
        "_rank" : 4,
        "h" : 19
      },
      "swa_model\/rconv16\/norm2\/beta\/read\/_76__cf__76" : {
        "k" : 1,
        "w" : 192,
        "n" : 1,
        "_rank" : 1,
        "h" : 1
      },
      "_neg_y_swa_model\/sub_3" : {
        "k" : 1,
        "w" : 1,
        "n" : 1,
        "_rank" : 1,
        "h" : 1
      },
      "swa_model\/rconv17\/norm1\/beta\/read\/_81__cf__81" : {
        "k" : 1,
        "w" : 256,
        "n" : 1,
        "_rank" : 1,
        "h" : 1
      },
      "swa_model\/Relu_90" : {
        "k" : 19,
        "w" : 48,
        "n" : 1,
        "_rank" : 4,
        "h" : 19
      },
      "swa_model\/Relu_74" : {
        "k" : 19,
        "w" : 256,
        "n" : 1,
        "_rank" : 4,
        "h" : 19
      },
      "swa_model\/Relu_58" : {
        "k" : 19,
        "w" : 256,
        "n" : 1,
        "_rank" : 4,
        "h" : 19
      },
      "transpose_199" : {
        "k" : 256,
        "w" : 19,
        "n" : 1,
        "_rank" : 4,
        "h" : 19
      },
      "swa_model\/add_163" : {
        "k" : 19,
        "w" : 256,
        "n" : 1,
        "_rank" : 4,
        "h" : 19
      },
      "transpose_269" : {
        "k" : 256,
        "w" : 19,
        "n" : 1,
        "_rank" : 4,
        "h" : 19
      },
      "swa_model\/sub_8\/x" : {
        "k" : 1,
        "w" : 1,
        "n" : 1,
        "_rank" : 1,
        "h" : 1
      },
      "swa_model\/Relu_89" : {
        "k" : 19,
        "w" : 48,
        "n" : 1,
        "_rank" : 4,
        "h" : 19
      },
      "transpose_224" : {
        "k" : 19,
        "w" : 256,
        "n" : 1,
        "_rank" : 4,
        "h" : 19
      },
      "swa_model\/Mean_1" : {
        "k" : 1,
        "w" : 64,
        "n" : 1,
        "_rank" : 4,
        "h" : 1
      },
      "_inversed_swa_model\/truediv_8" : {
        "k" : 1,
        "w" : 1,
        "n" : 1,
        "_rank" : 2,
        "h" : 1
      },
      "transpose_339" : {
        "k" : 256,
        "w" : 19,
        "n" : 1,
        "_rank" : 4,
        "h" : 19
      },
      "swa_model\/add_178" : {
        "k" : 19,
        "w" : 48,
        "n" : 1,
        "_rank" : 4,
        "h" : 19
      },
      "swa_model\/rconv35\/norm1\/beta\/read\/_187__cf__187" : {
        "k" : 1,
        "w" : 256,
        "n" : 1,
        "_rank" : 1,
        "h" : 1
      },
      "swa_model\/Relu_2" : {
        "k" : 19,
        "w" : 256,
        "n" : 1,
        "_rank" : 4,
        "h" : 19
      },
      "transpose_271" : {
        "k" : 256,
        "w" : 19,
        "n" : 1,
        "_rank" : 4,
        "h" : 19
      },
      "swa_model\/add_30" : {
        "k" : 19,
        "w" : 256,
        "n" : 1,
        "_rank" : 4,
        "h" : 19
      },
      "swa_model\/cond_2\/pred_id\/_22__cf__22" : {
        "k" : 1,
        "w" : 1,
        "n" : 1,
        "_rank" : 1,
        "h" : 1
      },
      "transpose_341" : {
        "k" : 256,
        "w" : 19,
        "n" : 1,
        "_rank" : 4,
        "h" : 19
      },
      "transpose_228" : {
        "k" : 19,
        "w" : 256,
        "n" : 1,
        "_rank" : 4,
        "h" : 19
      },
      "conv_19" : {
        "k" : 256,
        "w" : 19,
        "n" : 1,
        "_rank" : 4,
        "h" : 19
      },
      "swa_model\/mul_78" : {
        "k" : 19,
        "w" : 192,
        "n" : 1,
        "_rank" : 4,
        "h" : 19
      },
      "swa_model\/Reshape_3" : {
        "k" : 1,
        "w" : 1,
        "n" : 1,
        "_rank" : 4,
        "h" : 1
      },
      "swa_model\/add_56" : {
        "k" : 19,
        "w" : 256,
        "n" : 1,
        "_rank" : 4,
        "h" : 19
      },
      "transpose_275" : {
        "k" : 256,
        "w" : 19,
        "n" : 1,
        "_rank" : 4,
        "h" : 19
      },
      "swa_model\/Tensordot_2\/MatMul" : {
        "k" : 1,
        "w" : 192,
        "n" : 1,
        "_rank" : 2,
        "h" : 1
      },
      "transpose_230" : {
        "k" : 19,
        "w" : 256,
        "n" : 1,
        "_rank" : 4,
        "h" : 19
      },
      "transpose_345" : {
        "k" : 256,
        "w" : 19,
        "n" : 1,
        "_rank" : 4,
        "h" : 19
      },
      "swa_model\/Mean_2" : {
        "k" : 1,
        "w" : 64,
        "n" : 1,
        "_rank" : 4,
        "h" : 1
      },
      "transpose_300" : {
        "k" : 19,
        "w" : 256,
        "n" : 1,
        "_rank" : 4,
        "h" : 19
      },
      "conv_26" : {
        "k" : 256,
        "w" : 19,
        "n" : 1,
        "_rank" : 4,
        "h" : 19
      },
      "swa_model\/Relu_3" : {
        "k" : 19,
        "w" : 256,
        "n" : 1,
        "_rank" : 4,
        "h" : 19
      },
      "identity_7" : {
        "k" : 19,
        "w" : 1,
        "n" : 1,
        "_rank" : 4,
        "h" : 19
      },
      "swa_model\/Tensordot_2" : {
        "k" : 1,
        "w" : 192,
        "n" : 1,
        "_rank" : 4,
        "h" : 1
      },
      "swa_model\/Relu_13" : {
        "k" : 19,
        "w" : 256,
        "n" : 1,
        "_rank" : 4,
        "h" : 19
      },
      "swa_model\/add_31" : {
        "k" : 19,
        "w" : 256,
        "n" : 1,
        "_rank" : 4,
        "h" : 19
      },
      "transpose_279" : {
        "k" : 256,
        "w" : 19,
        "n" : 1,
        "_rank" : 4,
        "h" : 19
      },
      "swa_model\/Square" : {
        "k" : 1,
        "w" : 1,
        "n" : 1,
        "_rank" : 2,
        "h" : 1
      },
      "transpose_234" : {
        "k" : 19,
        "w" : 256,
        "n" : 1,
        "_rank" : 4,
        "h" : 19
      },
      "swa_model\/Relu_60" : {
        "k" : 19,
        "w" : 256,
        "n" : 1,
        "_rank" : 4,
        "h" : 19
      },
      "swa_model\/Relu_44" : {
        "k" : 19,
        "w" : 64,
        "n" : 1,
        "_rank" : 4,
        "h" : 19
      },
      "swa_model\/Relu_28" : {
        "k" : 19,
        "w" : 256,
        "n" : 1,
        "_rank" : 4,
        "h" : 19
      },
      "conv_33" : {
        "k" : 256,
        "w" : 19,
        "n" : 1,
        "_rank" : 4,
        "h" : 19
      },
      "transpose_349" : {
        "k" : 256,
        "w" : 19,
        "n" : 1,
        "_rank" : 4,
        "h" : 19
      },
      "swa_model\/rconv2\/norm1\/beta\/read\/_96__cf__96" : {
        "k" : 1,
        "w" : 256,
        "n" : 1,
        "_rank" : 1,
        "h" : 1
      },
      "swa_model_ownership_output" : {
        "k" : 1,
        "w" : 19,
        "n" : 1,
        "_rank" : 3,
        "h" : 19
      },
      "transpose_304" : {
        "k" : 19,
        "w" : 256,
        "n" : 1,
        "_rank" : 4,
        "h" : 19
      },
      "swa_model\/cond_3\/pred_id\/_23__cf__23" : {
        "k" : 1,
        "w" : 1,
        "n" : 1,
        "_rank" : 1,
        "h" : 1
      },
      "swa_model\/mul_79" : {
        "k" : 1,
        "w" : 192,
        "n" : 1,
        "_rank" : 4,
        "h" : 1
      },
      "swa_model\/Relu_91" : {
        "k" : 1,
        "w" : 128,
        "n" : 1,
        "_rank" : 2,
        "h" : 1
      },
      "swa_model\/add_57" : {
        "k" : 19,
        "w" : 256,
        "n" : 1,
        "_rank" : 4,
        "h" : 19
      },
      "swa_model\/cond_2\/Merge" : {
        "k" : 19,
        "w" : 22,
        "n" : 1,
        "_rank" : 4,
        "h" : 19
      },
      "swa_model\/sub_1\/y" : {
        "k" : 1,
        "w" : 1,
        "n" : 1,
        "_rank" : 1,
        "h" : 1
      },
      "swa_model\/Relu_75" : {
        "k" : 19,
        "w" : 256,
        "n" : 1,
        "_rank" : 4,
        "h" : 19
      },
      "transpose_281" : {
        "k" : 256,
        "w" : 19,
        "n" : 1,
        "_rank" : 4,
        "h" : 19
      },
      "swa_model\/add_148" : {
        "k" : 19,
        "w" : 256,
        "n" : 1,
        "_rank" : 4,
        "h" : 19
      },
      "swa_model\/Relu_59" : {
        "k" : 19,
        "w" : 256,
        "n" : 1,
        "_rank" : 4,
        "h" : 19
      },
      "swa_model\/mul_135" : {
        "k" : 19,
        "w" : 192,
        "n" : 1,
        "_rank" : 4,
        "h" : 19
      },
      "swa_model\/cond_2\/Merge_@ssa_version_1" : {
        "k" : 19,
        "w" : 22,
        "n" : 1,
        "_rank" : 4,
        "h" : 19
      },
      "swa_model_policy_output" : {
        "k" : 1,
        "w" : 362,
        "n" : 1,
        "_rank" : 3,
        "h" : 2
      },
      "transpose_351" : {
        "k" : 192,
        "w" : 19,
        "n" : 1,
        "_rank" : 4,
        "h" : 19
      },
      "swa_model\/add_82" : {
        "k" : 19,
        "w" : 256,
        "n" : 1,
        "_rank" : 4,
        "h" : 19
      },
      "identity_2" : {
        "k" : 19,
        "w" : 22,
        "n" : 1,
        "_rank" : 4,
        "h" : 19
      },
      "swa_model\/Mean_3" : {
        "k" : 1,
        "w" : 64,
        "n" : 1,
        "_rank" : 4,
        "h" : 1
      },
      "swa_model\/rconv34\/norm1\/beta\/read\/_182__cf__182" : {
        "k" : 1,
        "w" : 256,
        "n" : 1,
        "_rank" : 1,
        "h" : 1
      },
      "swa_model\/concat_2" : {
        "k" : 1,
        "w" : 192,
        "n" : 1,
        "_rank" : 4,
        "h" : 1
      },
      "transpose_238" : {
        "k" : 19,
        "w" : 256,
        "n" : 1,
        "_rank" : 4,
        "h" : 19
      },
      "conv_40" : {
        "k" : 48,
        "w" : 19,
        "n" : 1,
        "_rank" : 4,
        "h" : 19
      },
      "swa_model\/cond_5\/pred_id\/_25__cf__25" : {
        "k" : 1,
        "w" : 1,
        "n" : 1,
        "_rank" : 1,
        "h" : 1
      },
      "swa_model\/Relu_55__reduction_axis__1" : {
        "k" : 1,
        "w" : 64,
        "n" : 1,
        "_rank" : 4,
        "h" : 19
      },
      "swa_model\/Relu_4" : {
        "k" : 19,
        "w" : 256,
        "n" : 1,
        "_rank" : 4,
        "h" : 19
      },
      "transpose_308" : {
        "k" : 19,
        "w" : 192,
        "n" : 1,
        "_rank" : 4,
        "h" : 19
      },
      "swa_model\/Reshape_11" : {
        "k" : 1,
        "w" : 1,
        "n" : 1,
        "_rank" : 4,
        "h" : 1
      },
      "swa_model\/Conv2D_87x" : {
        "k" : 256,
        "w" : 19,
        "n" : 1,
        "_rank" : 4,
        "h" : 19
      },
      "transpose_285" : {
        "k" : 192,
        "w" : 19,
        "n" : 1,
        "_rank" : 4,
        "h" : 19
      },
      "swa_model\/concat_9" : {
        "k" : 1,
        "w" : 144,
        "n" : 1,
        "_rank" : 2,
        "h" : 1
      },
      "swa_model\/cond_2\/Merge_@ssa_version_2" : {
        "k" : 19,
        "w" : 22,
        "n" : 1,
        "_rank" : 4,
        "h" : 19
      },
      "swa_model\/Conv2D_65x" : {
        "k" : 256,
        "w" : 19,
        "n" : 1,
        "_rank" : 4,
        "h" : 19
      },
      "swa_model\/rconv26\/norm2\/gamma\/read\/_136__cf__136" : {
        "k" : 1,
        "w" : 192,
        "n" : 1,
        "_rank" : 1,
        "h" : 1
      },
      "swa_model\/Conv2D_43x" : {
        "k" : 256,
        "w" : 19,
        "n" : 1,
        "_rank" : 4,
        "h" : 19
      },
      "transpose_240" : {
        "k" : 19,
        "w" : 256,
        "n" : 1,
        "_rank" : 4,
        "h" : 19
      },
      "transpose_355" : {
        "k" : 256,
        "w" : 19,
        "n" : 1,
        "_rank" : 4,
        "h" : 19
      },
      "swa_model\/Conv2D_21x" : {
        "k" : 256,
        "w" : 19,
        "n" : 1,
        "_rank" : 4,
        "h" : 19
      },
      "transpose_310" : {
        "k" : 19,
        "w" : 64,
        "n" : 1,
        "_rank" : 4,
        "h" : 19
      },
      "swa_model\/cond_4\/pred_id\/_24__cf__24" : {
        "k" : 1,
        "w" : 1,
        "n" : 1,
        "_rank" : 1,
        "h" : 1
      },
      "identity_13" : {
        "k" : 19,
        "w" : 2,
        "n" : 1,
        "_rank" : 4,
        "h" : 19
      },
      "swa_model\/Tensordot_2\/Reshape" : {
        "k" : 1,
        "w" : 192,
        "n" : 1,
        "_rank" : 2,
        "h" : 1
      },
      "_neg_y_swa_model\/sub_12" : {
        "k" : 1,
        "w" : 1,
        "n" : 1,
        "_rank" : 1,
        "h" : 1
      },
      "swa_model\/Relu_33__reduction_axis__1_@ssa_version_1" : {
        "k" : 1,
        "w" : 64,
        "n" : 1,
        "_rank" : 4,
        "h" : 19
      },
      "_inversed_swa_model\/truediv_3" : {
        "k" : 1,
        "w" : 1,
        "n" : 1,
        "_rank" : 4,
        "h" : 1
      },
      "transpose_289" : {
        "k" : 256,
        "w" : 19,
        "n" : 1,
        "_rank" : 4,
        "h" : 19
      },
      "swa_model\/add_83" : {
        "k" : 19,
        "w" : 256,
        "n" : 1,
        "_rank" : 4,
        "h" : 19
      },
      "transpose_244" : {
        "k" : 19,
        "w" : 64,
        "n" : 1,
        "_rank" : 4,
        "h" : 19
      },
      "transpose_359" : {
        "k" : 256,
        "w" : 19,
        "n" : 1,
        "_rank" : 4,
        "h" : 19
      },
      "swa_model\/Mean_4" : {
        "k" : 1,
        "w" : 64,
        "n" : 1,
        "_rank" : 4,
        "h" : 1
      },
      "swa_model\/Tensordot_9" : {
        "k" : 1,
        "w" : 2,
        "n" : 1,
        "_rank" : 4,
        "h" : 1
      },
      "transpose_314" : {
        "k" : 19,
        "w" : 256,
        "n" : 1,
        "_rank" : 4,
        "h" : 19
      },
      "conv_27" : {
        "k" : 256,
        "w" : 19,
        "n" : 1,
        "_rank" : 4,
        "h" : 19
      },
      "swa_model\/rconv21\/norm2\/gamma\/read\/_109__cf__109" : {
        "k" : 1,
        "w" : 192,
        "n" : 1,
        "_rank" : 1,
        "h" : 1
      },
      "swa_model\/rconv3\/norm1\/beta\/read\/_155__cf__155" : {
        "k" : 1,
        "w" : 256,
        "n" : 1,
        "_rank" : 1,
        "h" : 1
      },
      "swa_model\/Relu_5" : {
        "k" : 19,
        "w" : 256,
        "n" : 1,
        "_rank" : 4,
        "h" : 19
      },
      "swa_model\/cond_6\/pred_id\/_26__cf__26" : {
        "k" : 1,
        "w" : 1,
        "n" : 1,
        "_rank" : 1,
        "h" : 1
      },
      "swa_model\/Reshape_18" : {
        "k" : 1,
        "w" : 2,
        "n" : 1,
        "_rank" : 3,
        "h" : 361
      },
      "transpose_291" : {
        "k" : 256,
        "w" : 19,
        "n" : 1,
        "_rank" : 4,
        "h" : 19
      },
      "swa_model\/rconv16\/norm1\/beta\/read\/_74__cf__74" : {
        "k" : 1,
        "w" : 256,
        "n" : 1,
        "_rank" : 1,
        "h" : 1
      },
      "swa_model\/Relu_30" : {
        "k" : 19,
        "w" : 256,
        "n" : 1,
        "_rank" : 4,
        "h" : 19
      },
      "swa_model\/Relu_14" : {
        "k" : 19,
        "w" : 256,
        "n" : 1,
        "_rank" : 4,
        "h" : 19
      },
      "transpose_361" : {
        "k" : 256,
        "w" : 19,
        "n" : 1,
        "_rank" : 4,
        "h" : 19
      },
      "swa_model\/Conv2D_72x" : {
        "k" : 256,
        "w" : 19,
        "n" : 1,
        "_rank" : 4,
        "h" : 19
      },
      "swa_model\/Relu_61" : {
        "k" : 19,
        "w" : 256,
        "n" : 1,
        "_rank" : 4,
        "h" : 19
      },
      "swa_model\/Relu_45" : {
        "k" : 19,
        "w" : 192,
        "n" : 1,
        "_rank" : 4,
        "h" : 19
      },
      "swa_model\/Mean" : {
        "k" : 1,
        "w" : 64,
        "n" : 1,
        "_rank" : 4,
        "h" : 1
      },
      "transpose_248" : {
        "k" : 19,
        "w" : 256,
        "n" : 1,
        "_rank" : 4,
        "h" : 19
      },
      "swa_model\/Conv2D_50x" : {
        "k" : 256,
        "w" : 19,
        "n" : 1,
        "_rank" : 4,
        "h" : 19
      },
      "swa_model\/add_134" : {
        "k" : 19,
        "w" : 192,
        "n" : 1,
        "_rank" : 4,
        "h" : 19
      },
      "conv_34" : {
        "k" : 256,
        "w" : 19,
        "n" : 1,
        "_rank" : 4,
        "h" : 19
      },
      "swa_model\/add_118" : {
        "k" : 19,
        "w" : 256,
        "n" : 1,
        "_rank" : 4,
        "h" : 19
      },
      "swa_model\/Relu_29" : {
        "k" : 19,
        "w" : 256,
        "n" : 1,
        "_rank" : 4,
        "h" : 19
      },
      "transpose_203" : {
        "k" : 256,
        "w" : 19,
        "n" : 1,
        "_rank" : 4,
        "h" : 19
      },
      "transpose_318" : {
        "k" : 19,
        "w" : 256,
        "n" : 1,
        "_rank" : 4,
        "h" : 19
      },
      "swa_model\/Relu_76" : {
        "k" : 19,
        "w" : 256,
        "n" : 1,
        "_rank" : 4,
        "h" : 19
      },
      "swa_model\/add_181" : {
        "k" : 1,
        "w" : 3,
        "n" : 1,
        "_rank" : 2,
        "h" : 1
      },
      "swa_model\/add_149" : {
        "k" : 19,
        "w" : 256,
        "n" : 1,
        "_rank" : 4,
        "h" : 19
      },
      "swa_model\/mul_136" : {
        "k" : 1,
        "w" : 192,
        "n" : 1,
        "_rank" : 4,
        "h" : 1
      },
      "swa_model\/mul_152" : {
        "k" : 1,
        "w" : 48,
        "n" : 1,
        "_rank" : 4,
        "h" : 1
      },
      "transpose_295" : {
        "k" : 256,
        "w" : 19,
        "n" : 1,
        "_rank" : 4,
        "h" : 19
      },
      "transpose_250" : {
        "k" : 19,
        "w" : 256,
        "n" : 1,
        "_rank" : 4,
        "h" : 19
      },
      "transpose_365" : {
        "k" : 256,
        "w" : 19,
        "n" : 1,
        "_rank" : 4,
        "h" : 19
      },
      "swa_model\/Mean_5" : {
        "k" : 1,
        "w" : 64,
        "n" : 1,
        "_rank" : 4,
        "h" : 1
      },
      "swa_model\/cond_4\/Merge" : {
        "k" : 19,
        "w" : 2,
        "n" : 1,
        "_rank" : 4,
        "h" : 19
      },
      "swa_model\/Conv2D_2x" : {
        "k" : 256,
        "w" : 19,
        "n" : 1,
        "_rank" : 4,
        "h" : 19
      },
      "conv_41" : {
        "k" : 48,
        "w" : 19,
        "n" : 1,
        "_rank" : 4,
        "h" : 19
      },
      "transpose_320" : {
        "k" : 19,
        "w" : 256,
        "n" : 1,
        "_rank" : 4,
        "h" : 19
      },
      "swa_model\/Tensordot_3\/MatMul" : {
        "k" : 1,
        "w" : 192,
        "n" : 1,
        "_rank" : 2,
        "h" : 1
      },
      "swa_model\/Relu_6" : {
        "k" : 19,
        "w" : 256,
        "n" : 1,
        "_rank" : 4,
        "h" : 19
      },
      "transpose_207" : {
        "k" : 256,
        "w" : 19,
        "n" : 1,
        "_rank" : 4,
        "h" : 19
      },
      "swa_model\/add_34" : {
        "k" : 19,
        "w" : 256,
        "n" : 1,
        "_rank" : 4,
        "h" : 19
      },
      "swa_model\/Conv2D_59x" : {
        "k" : 256,
        "w" : 19,
        "n" : 1,
        "_rank" : 4,
        "h" : 19
      },
      "swa_model\/cond_7\/pred_id\/_27__cf__27" : {
        "k" : 1,
        "w" : 1,
        "n" : 1,
        "_rank" : 1,
        "h" : 1
      },
      "transpose_299" : {
        "k" : 256,
        "w" : 19,
        "n" : 1,
        "_rank" : 4,
        "h" : 19
      },
      "swa_model\/Conv2D_37x" : {
        "k" : 256,
        "w" : 19,
        "n" : 1,
        "_rank" : 4,
        "h" : 19
      },
      "transpose_254" : {
        "k" : 19,
        "w" : 256,
        "n" : 1,
        "_rank" : 4,
        "h" : 19
      },
      "swa_model\/Conv2D_15x" : {
        "k" : 256,
        "w" : 19,
        "n" : 1,
        "_rank" : 4,
        "h" : 19
      },
      "transpose_369" : {
        "k" : 256,
        "w" : 19,
        "n" : 1,
        "_rank" : 4,
        "h" : 19
      },
      "transpose_324" : {
        "k" : 19,
        "w" : 256,
        "n" : 1,
        "_rank" : 4,
        "h" : 19
      },
      "swa_model\/rconv6\/norm1\/beta\/read\/_229__cf__229" : {
        "k" : 1,
        "w" : 256,
        "n" : 1,
        "_rank" : 1,
        "h" : 1
      },
      "swa_model\/cond_7\/Merge_@ssa_version_1" : {
        "k" : 19,
        "w" : 1,
        "n" : 1,
        "_rank" : 4,
        "h" : 19
      },
      "swa_model\/Reshape_7" : {
        "k" : 1,
        "w" : 1,
        "n" : 1,
        "_rank" : 4,
        "h" : 1
      },
      "transpose_371" : {
        "k" : 256,
        "w" : 19,
        "n" : 1,
        "_rank" : 4,
        "h" : 19
      },
      "swa_model\/rconv28\/norm1\/beta\/read\/_145__cf__145" : {
        "k" : 1,
        "w" : 256,
        "n" : 1,
        "_rank" : 1,
        "h" : 1
      },
      "swa_model_bin_inputs" : {
        "k" : 1,
        "w" : 22,
        "n" : 1,
        "_rank" : 3,
        "h" : 361
      },
      "swa_model\/Mean_6" : {
        "k" : 1,
        "w" : 64,
        "n" : 1,
        "_rank" : 4,
        "h" : 1
      },
      "swa_model\/Tensordot_4\/Reshape" : {
        "k" : 1,
        "w" : 192,
        "n" : 1,
        "_rank" : 2,
        "h" : 1
      },
      "transpose_258" : {
        "k" : 19,
        "w" : 256,
        "n" : 1,
        "_rank" : 4,
        "h" : 19
      },
      "swa_model\/Relu_7" : {
        "k" : 19,
        "w" : 256,
        "n" : 1,
        "_rank" : 4,
        "h" : 19
      },
      "conv_28" : {
        "k" : 256,
        "w" : 19,
        "n" : 1,
        "_rank" : 4,
        "h" : 19
      },
      "transpose_213" : {
        "k" : 256,
        "w" : 19,
        "n" : 1,
        "_rank" : 4,
        "h" : 19
      },
      "transpose_328" : {
        "k" : 19,
        "w" : 256,
        "n" : 1,
        "_rank" : 4,
        "h" : 19
      },
      "swa_model\/Relu_31" : {
        "k" : 19,
        "w" : 256,
        "n" : 1,
        "_rank" : 4,
        "h" : 19
      },
      "swa_model\/Relu_15" : {
        "k" : 19,
        "w" : 256,
        "n" : 1,
        "_rank" : 4,
        "h" : 19
      },
      "swa_model\/mul_57" : {
        "k" : 1,
        "w" : 64,
        "n" : 1,
        "_rank" : 4,
        "h" : 1
      },
      "swa_model\/Reshape_21" : {
        "k" : 1,
        "w" : 1,
        "n" : 1,
        "_rank" : 2,
        "h" : 1
      },
      "swa_model\/add_35" : {
        "k" : 19,
        "w" : 256,
        "n" : 1,
        "_rank" : 4,
        "h" : 19
      },
      "swa_model\/add_104" : {
        "k" : 19,
        "w" : 256,
        "n" : 1,
        "_rank" : 4,
        "h" : 19
      },
      "swa_model\/cond_7\/Merge_@ssa_version_2" : {
        "k" : 19,
        "w" : 1,
        "n" : 1,
        "_rank" : 4,
        "h" : 19
      },
      "transpose_190" : {
        "k" : 19,
        "w" : 2,
        "n" : 1,
        "_rank" : 4,
        "h" : 19
      },
      "swa_model\/Conv2D_88x" : {
        "k" : 48,
        "w" : 19,
        "n" : 1,
        "_rank" : 4,
        "h" : 19
      },
      "swa_model\/Tensordot_3" : {
        "k" : 1,
        "w" : 192,
        "n" : 1,
        "_rank" : 4,
        "h" : 1
      },
      "transpose_260" : {
        "k" : 19,
        "w" : 256,
        "n" : 1,
        "_rank" : 4,
        "h" : 19
      },
      "swa_model\/Relu_62" : {
        "k" : 19,
        "w" : 256,
        "n" : 1,
        "_rank" : 4,
        "h" : 19
      },
      "swa_model\/Relu_46" : {
        "k" : 19,
        "w" : 256,
        "n" : 1,
        "_rank" : 4,
        "h" : 19
      },
      "_neg_y_swa_model\/sub_7" : {
        "k" : 1,
        "w" : 1,
        "n" : 1,
        "_rank" : 1,
        "h" : 1
      },
      "swa_model\/rconv4\/norm1\/beta\/read\/_214__cf__214" : {
        "k" : 1,
        "w" : 256,
        "n" : 1,
        "_rank" : 1,
        "h" : 1
      },
      "swa_model\/add_135" : {
        "k" : 19,
        "w" : 192,
        "n" : 1,
        "_rank" : 4,
        "h" : 19
      },
      "swa_model\/add_119" : {
        "k" : 19,
        "w" : 256,
        "n" : 1,
        "_rank" : 4,
        "h" : 19
      },
      "swa_model\/Conv2D_66x" : {
        "k" : 192,
        "w" : 19,
        "n" : 1,
        "_rank" : 4,
        "h" : 19
      },
      "transpose_375" : {
        "k" : 256,
        "w" : 19,
        "n" : 1,
        "_rank" : 4,
        "h" : 19
      },
      "transpose_330" : {
        "k" : 19,
        "w" : 192,
        "n" : 1,
        "_rank" : 4,
        "h" : 19
      },
      "swa_model\/Tensordot_6\/Reshape" : {
        "k" : 1,
        "w" : 192,
        "n" : 1,
        "_rank" : 2,
        "h" : 1
      },
      "swa_model\/Conv2D_22x" : {
        "k" : 192,
        "w" : 19,
        "n" : 1,
        "_rank" : 4,
        "h" : 19
      },
      "conv_35" : {
        "k" : 64,
        "w" : 19,
        "n" : 1,
        "_rank" : 4,
        "h" : 19
      },
      "swa_model\/Relu_77" : {
        "k" : 19,
        "w" : 64,
        "n" : 1,
        "_rank" : 4,
        "h" : 19
      },
      "swa_model\/rconv36\/norm2\/gamma\/read\/_195__cf__195" : {
        "k" : 1,
        "w" : 192,
        "n" : 1,
        "_rank" : 1,
        "h" : 1
      },
      "swa_model\/sub_4\/y" : {
        "k" : 1,
        "w" : 1,
        "n" : 1,
        "_rank" : 1,
        "h" : 1
      },
      "transpose_217" : {
        "k" : 256,
        "w" : 19,
        "n" : 1,
        "_rank" : 4,
        "h" : 19
      },
      "swa_model\/add_166" : {
        "k" : 19,
        "w" : 256,
        "n" : 1,
        "_rank" : 4,
        "h" : 19
      },
      "swa_model\/Conv2D_44x" : {
        "k" : 192,
        "w" : 19,
        "n" : 1,
        "_rank" : 4,
        "h" : 19
      },
      "swa_model\/add_60" : {
        "k" : 19,
        "w" : 256,
        "n" : 1,
        "_rank" : 4,
        "h" : 19
      },
      "swa_model\/add_182" : {
        "k" : 1,
        "w" : 10,
        "n" : 1,
        "_rank" : 2,
        "h" : 1
      },
      "swa_model\/cond_8\/pred_id\/_28__cf__28" : {
        "k" : 1,
        "w" : 1,
        "n" : 1,
        "_rank" : 1,
        "h" : 1
      },
      "swa_model\/Relu_90__reduction_axis__1" : {
        "k" : 1,
        "w" : 48,
        "n" : 1,
        "_rank" : 4,
        "h" : 19
      },
      "transpose_194" : {
        "k" : 19,
        "w" : 1,
        "n" : 1,
        "_rank" : 4,
        "h" : 19
      },
      "swa_model\/cond_7\/Merge_@ssa_version_3" : {
        "k" : 19,
        "w" : 1,
        "n" : 1,
        "_rank" : 4,
        "h" : 19
      },
      "swa_model\/add_86" : {
        "k" : 19,
        "w" : 256,
        "n" : 1,
        "_rank" : 4,
        "h" : 19
      },
      "swa_model\/Tensordot_8\/Reshape" : {
        "k" : 1,
        "w" : 144,
        "n" : 1,
        "_rank" : 2,
        "h" : 1
      },
      "swa_model\/concat_3" : {
        "k" : 1,
        "w" : 192,
        "n" : 1,
        "_rank" : 4,
        "h" : 1
      },
      "swa_model\/Mean_7" : {
        "k" : 1,
        "w" : 48,
        "n" : 1,
        "_rank" : 4,
        "h" : 1
      },
      "transpose_264" : {
        "k" : 19,
        "w" : 192,
        "n" : 1,
        "_rank" : 4,
        "h" : 19
      },
      "_inversed_swa_model\/truediv_7" : {
        "k" : 1,
        "w" : 1,
        "n" : 1,
        "_rank" : 4,
        "h" : 1
      },
      "swa_model\/rconv23\/norm1\/beta\/read\/_118__cf__118" : {
        "k" : 1,
        "w" : 256,
        "n" : 1,
        "_rank" : 1,
        "h" : 1
      },
      "transpose_334" : {
        "k" : 19,
        "w" : 256,
        "n" : 1,
        "_rank" : 4,
        "h" : 19
      },
      "swa_model\/Relu_8" : {
        "k" : 19,
        "w" : 256,
        "n" : 1,
        "_rank" : 4,
        "h" : 19
      },
      "swa_model\/Relu_66__reduction_axis__1_@ssa_version_1" : {
        "k" : 1,
        "w" : 64,
        "n" : 1,
        "_rank" : 4,
        "h" : 19
      },
      "_inversed_swa_model\/truediv" : {
        "k" : 1,
        "w" : 1,
        "n" : 1,
        "_rank" : 4,
        "h" : 1
      },
      "swa_model\/cond_6\/Merge" : {
        "k" : 19,
        "w" : 1,
        "n" : 1,
        "_rank" : 4,
        "h" : 19
      },
      "swa_model\/Reshape_13" : {
        "k" : 1,
        "w" : 1,
        "n" : 1,
        "_rank" : 4,
        "h" : 1
      },
      "swa_model\/rconv31\/norm2\/gamma\/read\/_168__cf__168" : {
        "k" : 1,
        "w" : 192,
        "n" : 1,
        "_rank" : 1,
        "h" : 1
      },
      "transpose_198" : {
        "k" : 19,
        "w" : 48,
        "n" : 1,
        "_rank" : 4,
        "h" : 19
      },
      "identity_9" : {
        "k" : 19,
        "w" : 1,
        "n" : 1,
        "_rank" : 4,
        "h" : 19
      },
      "swa_model\/rconv14\/norm1\/beta\/read\/_64__cf__64" : {
        "k" : 1,
        "w" : 256,
        "n" : 1,
        "_rank" : 1,
        "h" : 1
      },
      "swa_model\/add_61" : {
        "k" : 19,
        "w" : 256,
        "n" : 1,
        "_rank" : 4,
        "h" : 19
      },
      "transpose_268" : {
        "k" : 19,
        "w" : 256,
        "n" : 1,
        "_rank" : 4,
        "h" : 19
      },
      "transpose_223" : {
        "k" : 256,
        "w" : 19,
        "n" : 1,
        "_rank" : 4,
        "h" : 19
      },
      "transpose_338" : {
        "k" : 19,
        "w" : 256,
        "n" : 1,
        "_rank" : 4,
        "h" : 19
      },
      "swa_model\/rconv27\/norm1\/beta\/read\/_140__cf__140" : {
        "k" : 1,
        "w" : 256,
        "n" : 1,
        "_rank" : 1,
        "h" : 1
      },
      "swa_model\/cond_4\/ReverseV2" : {
        "k" : 19,
        "w" : 2,
        "n" : 1,
        "_rank" : 4,
        "h" : 19
      },
      "swa_model\/add_87" : {
        "k" : 19,
        "w" : 256,
        "n" : 1,
        "_rank" : 4,
        "h" : 19
      },
      "transpose_270" : {
        "k" : 19,
        "w" : 256,
        "n" : 1,
        "_rank" : 4,
        "h" : 19
      },
      "swa_model\/Mean_8" : {
        "k" : 1,
        "w" : 48,
        "n" : 1,
        "_rank" : 2,
        "h" : 1
      },
      "transpose_340" : {
        "k" : 19,
        "w" : 256,
        "n" : 1,
        "_rank" : 4,
        "h" : 19
      },
      "identity_4" : {
        "k" : 19,
        "w" : 22,
        "n" : 1,
        "_rank" : 4,
        "h" : 19
      },
      "swa_model\/Relu_9" : {
        "k" : 19,
        "w" : 256,
        "n" : 1,
        "_rank" : 4,
        "h" : 19
      },
      "conv_29" : {
        "k" : 256,
        "w" : 19,
        "n" : 1,
        "_rank" : 4,
        "h" : 19
      },
      "transpose_227" : {
        "k" : 256,
        "w" : 19,
        "n" : 1,
        "_rank" : 4,
        "h" : 19
      },
      "swa_model\/Relu_32" : {
        "k" : 19,
        "w" : 256,
        "n" : 1,
        "_rank" : 4,
        "h" : 19
      },
      "swa_model\/Relu_16" : {
        "k" : 19,
        "w" : 256,
        "n" : 1,
        "_rank" : 4,
        "h" : 19
      },
      "swa_model\/mul_59" : {
        "k" : 19,
        "w" : 192,
        "n" : 1,
        "_rank" : 4,
        "h" : 19
      },
      "swa_model\/rconv8\/norm1\/beta\/read\/_241__cf__241" : {
        "k" : 1,
        "w" : 256,
        "n" : 1,
        "_rank" : 1,
        "h" : 1
      },
      "swa_model\/add_105" : {
        "k" : 19,
        "w" : 256,
        "n" : 1,
        "_rank" : 4,
        "h" : 19
      },
      "swa_model\/Relu_63" : {
        "k" : 19,
        "w" : 256,
        "n" : 1,
        "_rank" : 4,
        "h" : 19
      },
      "swa_model\/Relu_47" : {
        "k" : 19,
        "w" : 256,
        "n" : 1,
        "_rank" : 4,
        "h" : 19
      },
      "swa_model\/Tensordot_4\/MatMul" : {
        "k" : 1,
        "w" : 192,
        "n" : 1,
        "_rank" : 2,
        "h" : 1
      },
      "transpose_274" : {
        "k" : 19,
        "w" : 256,
        "n" : 1,
        "_rank" : 4,
        "h" : 19
      },
      "swa_model\/add_152" : {
        "k" : 19,
        "w" : 256,
        "n" : 1,
        "_rank" : 4,
        "h" : 19
      },
      "swa_model\/add_136" : {
        "k" : 19,
        "w" : 256,
        "n" : 1,
        "_rank" : 4,
        "h" : 19
      },
      "swa_model\/Relu_77__reduction_axis__1" : {
        "k" : 1,
        "w" : 64,
        "n" : 1,
        "_rank" : 4,
        "h" : 19
      },
      "swa_model\/sub_10\/y" : {
        "k" : 1,
        "w" : 1,
        "n" : 1,
        "_rank" : 1,
        "h" : 1
      },
      "transpose_344" : {
        "k" : 19,
        "w" : 256,
        "n" : 1,
        "_rank" : 4,
        "h" : 19
      },
      "swa_model\/Relu_78" : {
        "k" : 19,
        "w" : 192,
        "n" : 1,
        "_rank" : 4,
        "h" : 19
      },
      "conv_36" : {
        "k" : 256,
        "w" : 19,
        "n" : 1,
        "_rank" : 4,
        "h" : 19
      },
      "swa_model\/add_167" : {
        "k" : 19,
        "w" : 256,
        "n" : 1,
        "_rank" : 4,
        "h" : 19
      },
      "swa_model\/rconv26\/norm1\/beta\/read\/_133__cf__133" : {
        "k" : 1,
        "w" : 256,
        "n" : 1,
        "_rank" : 1,
        "h" : 1
      },
      "identity_14" : {
        "k" : 19,
        "w" : 2,
        "n" : 1,
        "_rank" : 4,
        "h" : 19
      },
      "swa_model\/rconv11\/norm2\/beta\/read\/_49__cf__49" : {
        "k" : 1,
        "w" : 192,
        "n" : 1,
        "_rank" : 1,
        "h" : 1
      },
      "_neg_y_swa_model\/sub_4" : {
        "k" : 1,
        "w" : 1,
        "n" : 1,
        "_rank" : 1,
        "h" : 1
      },
      "swa_model\/add_12" : {
        "k" : 19,
        "w" : 256,
        "n" : 1,
        "_rank" : 4,
        "h" : 19
      },
      "swa_model\/rconv22\/norm1\/beta\/read\/_113__cf__113" : {
        "k" : 1,
        "w" : 256,
        "n" : 1,
        "_rank" : 1,
        "h" : 1
      },
      "transpose_278" : {
        "k" : 19,
        "w" : 256,
        "n" : 1,
        "_rank" : 4,
        "h" : 19
      },
      "transpose_233" : {
        "k" : 256,
        "w" : 19,
        "n" : 1,
        "_rank" : 4,
        "h" : 19
      },
      "transpose_348" : {
        "k" : 19,
        "w" : 256,
        "n" : 1,
        "_rank" : 4,
        "h" : 19
      },
      "transpose_303" : {
        "k" : 256,
        "w" : 19,
        "n" : 1,
        "_rank" : 4,
        "h" : 19
      },
      "swa_model\/add_38" : {
        "k" : 19,
        "w" : 256,
        "n" : 1,
        "_rank" : 4,
        "h" : 19
      },
      "transpose_280" : {
        "k" : 19,
        "w" : 256,
        "n" : 1,
        "_rank" : 4,
        "h" : 19
      },
      "swa_model\/cond_8\/Merge" : {
        "k" : 19,
        "w" : 1,
        "n" : 1,
        "_rank" : 4,
        "h" : 19
      },
      "transpose_350" : {
        "k" : 19,
        "w" : 256,
        "n" : 1,
        "_rank" : 4,
        "h" : 19
      },
      "transpose_237" : {
        "k" : 256,
        "w" : 19,
        "n" : 1,
        "_rank" : 4,
        "h" : 19
      },
      "_inversed_swa_model\/truediv_2" : {
        "k" : 1,
        "w" : 1,
        "n" : 1,
        "_rank" : 4,
        "h" : 1
      },
      "transpose_307" : {
        "k" : 192,
        "w" : 19,
        "n" : 1,
        "_rank" : 4,
        "h" : 19
      },
      "swa_model\/rconv40\/norm1\/beta\/read\/_219__cf__219" : {
        "k" : 1,
        "w" : 256,
        "n" : 1,
        "_rank" : 1,
        "h" : 1
      },
      "swa_model\/rconv21\/norm1\/beta\/read\/_106__cf__106" : {
        "k" : 1,
        "w" : 256,
        "n" : 1,
        "_rank" : 1,
        "h" : 1
      },
      "swa_model\/add_13" : {
        "k" : 19,
        "w" : 256,
        "n" : 1,
        "_rank" : 4,
        "h" : 19
      },
      "transpose_284" : {
        "k" : 19,
        "w" : 256,
        "n" : 1,
        "_rank" : 4,
        "h" : 19
      },
      "swa_model\/cond_5\/Merge_@ssa_version_1" : {
        "k" : 19,
        "w" : 2,
        "n" : 1,
        "_rank" : 4,
        "h" : 19
      },
      "transpose_354" : {
        "k" : 19,
        "w" : 64,
        "n" : 1,
        "_rank" : 4,
        "h" : 19
      },
      "swa_model\/mul_60" : {
        "k" : 1,
        "w" : 192,
        "n" : 1,
        "_rank" : 4,
        "h" : 1
      },
      "swa_model\/Relu_33" : {
        "k" : 19,
        "w" : 64,
        "n" : 1,
        "_rank" : 4,
        "h" : 19
      },
      "swa_model\/Relu_17" : {
        "k" : 19,
        "w" : 256,
        "n" : 1,
        "_rank" : 4,
        "h" : 19
      },
      "swa_model\/add_122" : {
        "k" : 19,
        "w" : 256,
        "n" : 1,
        "_rank" : 4,
        "h" : 19
      },
      "swa_model\/sub" : {
        "k" : 1,
        "w" : 1,
        "n" : 1,
        "_rank" : 4,
        "h" : 1
      },
      "swa_model\/add_39" : {
        "k" : 19,
        "w" : 256,
        "n" : 1,
        "_rank" : 4,
        "h" : 19
      },
      "swa_model\/Relu_80" : {
        "k" : 19,
        "w" : 256,
        "n" : 1,
        "_rank" : 4,
        "h" : 19
      },
      "swa_model\/Relu_64" : {
        "k" : 19,
        "w" : 256,
        "n" : 1,
        "_rank" : 4,
        "h" : 19
      },
      "swa_model\/Relu_48" : {
        "k" : 19,
        "w" : 256,
        "n" : 1,
        "_rank" : 4,
        "h" : 19
      },
      "swa_model\/add_153" : {
        "k" : 19,
        "w" : 256,
        "n" : 1,
        "_rank" : 4,
        "h" : 19
      },
      "swa_model\/add_137" : {
        "k" : 19,
        "w" : 256,
        "n" : 1,
        "_rank" : 4,
        "h" : 19
      },
      "swa_model\/Relu_22__reduction_axis__1" : {
        "k" : 1,
        "w" : 64,
        "n" : 1,
        "_rank" : 4,
        "h" : 19
      },
      "swa_model\/Sum_1" : {
        "k" : 1,
        "w" : 1,
        "n" : 1,
        "_rank" : 1,
        "h" : 1
      },
      "swa_model\/add_64" : {
        "k" : 19,
        "w" : 256,
        "n" : 1,
        "_rank" : 4,
        "h" : 19
      },
      "transpose_288" : {
        "k" : 19,
        "w" : 64,
        "n" : 1,
        "_rank" : 4,
        "h" : 19
      },
      "conv_10" : {
        "k" : 64,
        "w" : 19,
        "n" : 1,
        "_rank" : 4,
        "h" : 19
      },
      "swa_model\/Tensordot_4" : {
        "k" : 1,
        "w" : 192,
        "n" : 1,
        "_rank" : 4,
        "h" : 1
      },
      "swa_model\/cond_5\/Merge_@ssa_version_2" : {
        "k" : 19,
        "w" : 2,
        "n" : 1,
        "_rank" : 4,
        "h" : 19
      },
      "swa_model\/Relu_79" : {
        "k" : 19,
        "w" : 256,
        "n" : 1,
        "_rank" : 4,
        "h" : 19
      },
      "swa_model\/rconv12\/norm1\/beta\/read\/_54__cf__54" : {
        "k" : 1,
        "w" : 256,
        "n" : 1,
        "_rank" : 1,
        "h" : 1
      },
      "swa_model\/strided_slice_1__reduction_axis__2" : {
        "k" : 1,
        "w" : 1,
        "n" : 1,
        "_rank" : 4,
        "h" : 1
      },
      "swa_model\/sub_7\/y" : {
        "k" : 1,
        "w" : 1,
        "n" : 1,
        "_rank" : 1,
        "h" : 1
      },
      "swa_model\/mul_155" : {
        "k" : 19,
        "w" : 1,
        "n" : 1,
        "_rank" : 4,
        "h" : 19
      },
      "conv_37" : {
        "k" : 256,
        "w" : 19,
        "n" : 1,
        "_rank" : 4,
        "h" : 19
      },
      "transpose_243" : {
        "k" : 256,
        "w" : 19,
        "n" : 1,
        "_rank" : 4,
        "h" : 19
      },
      "swa_model\/Conv2D_74x" : {
        "k" : 256,
        "w" : 19,
        "n" : 1,
        "_rank" : 4,
        "h" : 19
      },
      "transpose_358" : {
        "k" : 19,
        "w" : 256,
        "n" : 1,
        "_rank" : 4,
        "h" : 19
      },
      "transpose_313" : {
        "k" : 256,
        "w" : 19,
        "n" : 1,
        "_rank" : 4,
        "h" : 19
      },
      "swa_model\/Conv2D_52x" : {
        "k" : 256,
        "w" : 19,
        "n" : 1,
        "_rank" : 4,
        "h" : 19
      },
      "swa_model\/Conv2D_30x" : {
        "k" : 256,
        "w" : 19,
        "n" : 1,
        "_rank" : 4,
        "h" : 19
      },
      "swa_model\/concat_4" : {
        "k" : 1,
        "w" : 192,
        "n" : 1,
        "_rank" : 4,
        "h" : 1
      },
      "transpose_290" : {
        "k" : 19,
        "w" : 256,
        "n" : 1,
        "_rank" : 4,
        "h" : 19
      },
      "swa_model\/sub_1" : {
        "k" : 1,
        "w" : 1,
        "n" : 1,
        "_rank" : 4,
        "h" : 1
      },
      "transpose_360" : {
        "k" : 19,
        "w" : 256,
        "n" : 1,
        "_rank" : 4,
        "h" : 19
      },
      "swa_model\/sub_11\/y" : {
        "k" : 1,
        "w" : 1,
        "n" : 1,
        "_rank" : 1,
        "h" : 1
      },
      "transpose_247" : {
        "k" : 256,
        "w" : 19,
        "n" : 1,
        "_rank" : 4,
        "h" : 19
      },
      "transpose_202" : {
        "k" : 19,
        "w" : 256,
        "n" : 1,
        "_rank" : 4,
        "h" : 19
      },
      "transpose_317" : {
        "k" : 256,
        "w" : 19,
        "n" : 1,
        "_rank" : 4,
        "h" : 19
      },
      "_neg_y_swa_model\/sub_1" : {
        "k" : 1,
        "w" : 1,
        "n" : 1,
        "_rank" : 1,
        "h" : 1
      },
      "swa_model\/sub_2" : {
        "k" : 1,
        "w" : 1,
        "n" : 1,
        "_rank" : 4,
        "h" : 1
      },
      "transpose_294" : {
        "k" : 19,
        "w" : 256,
        "n" : 1,
        "_rank" : 4,
        "h" : 19
      },
      "swa_model\/Reshape_15" : {
        "k" : 1,
        "w" : 1,
        "n" : 1,
        "_rank" : 4,
        "h" : 1
      },
      "swa_model\/add_65" : {
        "k" : 19,
        "w" : 256,
        "n" : 1,
        "_rank" : 4,
        "h" : 19
      },
      "swa_model\/Max" : {
        "k" : 1,
        "w" : 64,
        "n" : 1,
        "_rank" : 4,
        "h" : 1
      },
      "transpose_364" : {
        "k" : 19,
        "w" : 256,
        "n" : 1,
        "_rank" : 4,
        "h" : 19
      },
      "swa_model\/Conv2D_39x" : {
        "k" : 256,
        "w" : 19,
        "n" : 1,
        "_rank" : 4,
        "h" : 19
      }
    },
    "global_shapes" : {

    }
  },
  "subnetworks" : {

  }
}